runs/exp5/best.pt (torch, 853347 bytes, 10 tensors)

lstm.weight_ih_l0 f4 [512, 26]
0	0x3c8372de	0.016045984
1	0xbd674b56	-0.05646833
2	0x3d00040f	0.03125387
3	0xbda33008	-0.079681456
4	0xbb89e81a	-0.004208577
5	0xbcf95b3e	-0.030439015
6	0x3d5be9bb	0.0536897
7	0xbda787bf	-0.081801884
8	0x3bad94e1	0.0052972888
9	0xbd193b3f	-0.037410017
10	0x3cc11839	0.02357112
11	0xbc9f5aa8	-0.019452408
12	0xbd0d8b43	-0.03455664
13	0xbd27e838	-0.040992945
14	0x3cbae006	0.0228119
15	0xbca0d033	-0.019630527
16	0x3ab51914	0.0013816678
17	0x3bf65344	0.0075172503
18	0x3af1a98c	0.001843737
19	0x3c82d5b7	0.015971048
20	0xbd034506	-0.032048248
21	0x3cf3fcc3	0.029783612
22	0xbcc71e62	-0.02430648
23	0x3d0eb0a0	0.03483641
24	0xbd4f4142	-0.050599344
25	0x3da495e1	0.080364
26	0x3d80e348	0.062933505
27	0xbce2809c	-0.027649216
28	0x3c1fd3c4	0.009755079
29	0x3d249efe	0.04019069
30	0x3baa6292	0.005199739
31	0x3c3335cb	0.010938118
32	0x3d5aa8fb	0.05338381
33	0x3cdeb056	0.027183693
34	0xba3c88d8	-0.0007192022
35	0xbd0474b1	-0.032337848
36	0x3cf36bdc	0.029714517
37	0xbd106aef	-0.03525823
38	0xbcd3c5d1	-0.025851162
39	0xbd63d48a	-0.055622615
40	0xbd08f84a	-0.033439912
41	0x3d4f9cc5	0.050686616
42	0xbd79d773	-0.060996484
43	0x3d1ec136	0.03875848
44	0x3c86a405	0.016435632
45	0xbc30c1c3	-0.010788384
46	0xbcb2cca2	-0.021826092
47	0xbc22f269	-0.00994549
48	0xbcd4ab72	-0.025960658
49	0xbc72fed0	-0.01483126
50	0xbd7cedf6	-0.061750375
51	0x3c352938	0.011057191
52	0xbd8b1688	-0.06791407
53	0xbca3fa54	-0.020016827
54	0xbd247511	-0.040150706
55	0xbdc1f4ed	-0.09470544
56	0xbb6db7e6	-0.0036272942
57	0xbd233b54	-0.0398515
58	0xbcc82ca3	-0.024435347
59	0xbd17d24d	-0.037065793
60	0x3caf89f0	0.021428078
61	0xbcd31c5a	-0.025770355
62	0xbb8b465c	-0.004250331
63	0x3cc2a75e	0.023761448
64	0x3b1da3ab	0.0024053853
65	0xb82f1d38	-4.1750463e-05
66	0xbcf53438	-0.029932126
67	0xbd553892	-0.052055903
68	0xbd0a0fc1	-0.03370643
69	0xbd11648e	-0.035496287
70	0xbc87425b	-0.016511133
71	0x3d2b039a	0.04175148
72	0xbc1bb61b	-0.009503867
73	0x3db078db	0.08616801
74	0x3d48a935	0.048989493
75	0x3cf4b3cd	0.029870892
76	0xbc7f4c13	-0.015582102
77	0x3d83d39e	0.06436847
78	0x3d89a601	0.06721116
79	0xbd5d76f2	-0.054068513
80	0x3da44ee1	0.080228575
81	0xbc2800f2	-0.010254132
82	0x3bc25b58	0.005931299
83	0xbd4a8aa6	-0.04944863
84	0x3d45bacc	0.048273847
85	0xbbd0fd72	-0.0063778693
86	0x3c6dd5cc	0.014516305
87	0xbd2603d5	-0.040531
88	0x3d0cb822	0.03435529
89	0x3be5808e	0.0070038503
90	0x3cf6a7a9	0.030109243
91	0xbc8babdf	-0.017049728
92	0xba82afd1	-0.000997061
93	0x3d85fd82	0.065424934
94	0xbc5b2f87	-0.013378031
95	0x3cb838d4	0.022488035
96	0xbd7a313b	-0.061082106
97	0x3c1fb348	0.009747334
98	0x3c4779f8	0.012175076
99	0xbcb3319e	-0.021874245
100	0xbd72d453	-0.05928452
101	0x3cc47a4d	0.023984099
102	0xbc14367a	-0.009046191
103	0x3ce5ee54	0.028067745
104	0xbd6b715a	-0.057481147
105	0xbdbed3cd	-0.093177415
106	0xbcec67ee	-0.028858151
107	0xbdc8f3f1	-0.09812153
108	0x3ce7c822	0.028293673
109	0xbd551fc0	-0.052032232
110	0xbc717b5a	-0.014738882
111	0xbdb58d33	-0.08864822
112	0x3d02e93f	0.031960722
113	0xbc92509f	-0.017860709
114	0x3c8261d9	0.015915798
115	0xbcf14495	-0.029451648
116	0x3c98dcff	0.018660067
117	0xbbedc978	-0.007256683
118	0xbdd4e32d	-0.10394893
119	0xbc2e1668	-0.010625459
120	0xbd3b7803	-0.04576875
121	0x3c94979f	0.018138705
122	0xbd30f5e7	-0.04320326
123	0x3c8b45ea	0.017001111
124	0x3be793dd	0.007067187
125	0x3d9b4b41	0.07582713
126	0xbcc2aecc	-0.02376499
127	0x3dcc5d27	0.09978705
128	0x3c45d3c2	0.012074413
129	0x3dcd7323	0.10031726
130	0xbcecf019	-0.028923081
131	0xbd6550c3	-0.055985224
132	0xbd4981c3	-0.049196016
133	0xbd1ecfcf	-0.0387724
134	0xbce0474c	-0.027377747
135	0xbcf9fe17	-0.030516667
136	0xbce38057	-0.027771158
137	0xbd02ad3f	-0.0319035
138	0xbb779548	-0.0037778188
139	0x3a3d59f8	0.0007223184
140	0xbbc805e6	-0.006104219
141	0x3c08633f	0.008324443
142	0xbbe8beba	-0.0071028145
143	0x3d0ceda0	0.034406304
144	0xbbf78312	-0.0075534666
145	0xbc733bd5	-0.014845808
146	0x3c78e25e	0.015190689
147	0x3bc88d21	0.0061203395
148	0x3d22739f	0.039661046
149	0x3bf5c9e7	0.0075008753
150	0x3d2c5eaf	0.042082485
151	0x3d2035b9	0.039113734
152	0x3c182e89	0.009288439
153	0x3d3f0ff2	0.046646066
154	0x3d675670	0.056478918
155	0x3d8332cd	0.06406174
156	0xbc367ef8	-0.01113867
157	0xbdb1a9fd	-0.08675001
158	0x3c701c40	0.014655173
159	0xbcdf0aed	-0.02722689
160	0x3cc47406	0.023981106
161	0xbd28690e	-0.041115813
162	0x3c323aab	0.010878245
163	0x3bd19965	0.00639646
164	0x3d1d2914	0.038369253
165	0xbcc9122d	-0.0245448
166	0x3d335ea0	0.043791413
167	0x3c69ca0f	0.014269366
168	0x3cb9bd30	0.02267322
169	0xbacff64c	-0.0015866249
170	0xbc987e59	-0.018614935
171	0x3d309149	0.043107305
172	0xbc901c76	-0.017591696
173	0x3c9d43f8	0.01919745
174	0xbc9615ef	-0.018321006
175	0x3d4630d9	0.04838643
176	0xbd02c0a2	-0.03192199
177	0x3d02bd0a	0.031918563
178	0xbc8e5572	-0.017374728
179	0x3d6a108b	0.057144683
180	0xbd5433e2	-0.05180729
181	0x3d670480	0.056400776
182	0xbd22b2dd	-0.03972136
183	0x3c73dbae	0.014883919
184	0xbddbc2cf	-0.10730516
185	0x3d34e7d9	0.04416642
186	0x3d7b9840	0.061424494
187	0x3d23b306	0.039965652
188	0xbdecb23c	-0.11557433
189	0x3d9ff6e6	0.07810764
190	0x3decc4f0	0.11561
191	0xbc30d0bd	-0.010791955
192	0xbe251a37	-0.16123281
193	0x3db957bf	0.09049939
194	0x3d1746a6	0.03693261
195	0xbcd80b79	-0.026372658
196	0xbd7d7ebe	-0.06188845
197	0xbd11afdf	-0.035568114
198	0x3dd4f64f	0.10398542
199	0xbd21ca2c	-0.039499447
200	0xbd06467d	-0.032782067
201	0xbc49b066	-0.012310123
202	0x3dfe1dc2	0.124080196
203	0xbd2be903	-0.041970264
204	0xbcdff431	-0.02733812
205	0x3c657b20	0.014006406
206	0x3da15363	0.07877233
207	0x3b3e402f	0.0029029956
208	0xbca8ffd4	-0.0206298
209	0xbd1b4b58	-0.03791365
210	0x3ccccac8	0.024999037
211	0xbd613605	-0.054983158
212	0xbd775adc	-0.060389385
213	0xbd694147	-0.05694702
214	0x3cf99bd5	0.030469814
215	0xbd1d5dd8	-0.038419574
216	0xbd815295	-0.063145794
217	0xbd16e35e	-0.036837928
218	0x3d30c51a	0.04315672
219	0x3c374c9f	0.0111877015
220	0xbdf7c503	-0.12098124
221	0x3cd0b976	0.02547906
222	0x3d953eaa	0.07287343
223	0xbc1aac6f	-0.009440525
224	0x3c76f0e7	0.015072084
225	0xbc7cf66c	-0.015439611
226	0x3d2a4efd	0.041579235
227	0x3d286937	0.041115966
228	0xbbff2824	-0.0077867676
229	0x3d3dc206	0.046327613
230	0x3d79a495	0.060947973
231	0x3dc589f0	0.0964545
232	0x3ce77ffc	0.02825927
233	0x3dcb369f	0.099225275
234	0x3d41b59e	0.047292344
235	0xbd84716d	-0.06466947
236	0xbd182c76	-0.037151776
237	0xbd39d4df	-0.045369025
238	0xbd969b3e	-0.07353829
239	0xbce6f0dd	-0.028191024
240	0x3cd426da	0.025897432
241	0xbca730d7	-0.02040903
242	0xbdcf6a8d	-0.10127745
243	0xbcc7948b	-0.024362823
244	0x3d9bfe2e	0.0761684
245	0x3c9892af	0.018624632
246	0x3d8d402c	0.068970054
247	0x3a9a93a6	0.001179327
248	0xbd49b01a	-0.04924021
249	0x3c9be2c9	0.019029038
250	0xbd5c9d28	-0.053860813
251	0x3cb5111d	0.022102887
252	0x3d6e9955	0.058251698
253	0x3d374b7e	0.04474973
254	0x3bee7835	0.0072775134
255	0x3d88b659	0.06675405

lstm.weight_hh_l0 f4 [512, 128]
0	0xbb8fe338	-0.0043911003
1	0xbbc24d4b	-0.005929624
2	0x3d3ed7b7	0.04659244
3	0xbb396652	-0.0028289747
4	0xbc2ba92d	-0.010477346
5	0x3c9a4d0c	0.018835567
6	0x3bef5762	0.007304118
7	0xb9f26689	-0.00046234232
8	0x3cf3d7cc	0.029765986
9	0x3bdd2719	0.0067490456
10	0x3c9805ae	0.018557396
11	0xbcc5034e	-0.024049427
12	0x3cc2d4b7	0.023783071
13	0x3caa4968	0.020786956
14	0xbb6f4ae9	-0.0036513156
15	0xbc05b827	-0.008161581
16	0xbc860d24	-0.016363688
17	0xbc37e81a	-0.011224771
18	0xbc9ecbfc	-0.019384377
19	0x3c7aa1f3	0.015297401
20	0x3cbd37b5	0.023097852
21	0x3c8d3a42	0.017239694
22	0x3d05d954	0.032677963
23	0xbac32936	-0.0014889601
24	0xbc4d52fc	-0.012531992
25	0x3c93468a	0.017977972
26	0x3ca2fd3a	0.019896138
27	0xbd4ad1ac	-0.049516365
28	0x3ac97af2	0.0015371724
29	0x3ba562fe	0.005047201
30	0xbc4face0	-0.012675494
31	0xbc17f7cd	-0.009275389
32	0xbb16e5c3	-0.0023025132
33	0x3c502bda	0.0127057675
34	0x3c153bdf	0.009108513
35	0x3bbf6abd	0.0058415816
36	0x3c92b0fc	0.017906658
37	0x3ce6e780	0.02818656
38	0x3a73aa01	0.0009295047
39	0xbd213994	-0.03936155
40	0xbc4afdd6	-0.012389621
41	0x3c92d0b9	0.017921792
42	0x3bc7f8bf	0.006102651
43	0xbc94fa38	-0.01818572
44	0x3beb338d	0.007177776
45	0x3cfc293f	0.030781386
46	0x3cee29db	0.029072693
47	0xbd2f9ed7	-0.04287609
48	0x3d34abb7	0.044109073
49	0x3c80e893	0.0157359
50	0x3c0da62e	0.008645577
51	0xbd09c7c7	-0.03363779
52	0xbc4782d8	-0.012177192
53	0xbd02116f	-0.031754907
54	0xbcde0bee	-0.027105298
55	0xbbf30b8d	-0.0074171484
56	0x3ba95f03	0.005168797
57	0x3c16d0b4	0.009205032
58	0xbc059a61	-0.008154483
59	0x3c813cb3	0.015776014
60	0xbbb6df17	-0.0055807936
61	0xbd017730	-0.031607807
62	0x3bad7355	0.0052932897
63	0x3d13800c	0.036010787
64	0x3bb47f67	0.0055083516
65	0x3d115f08	0.03549102
66	0x3bb1d486	0.005426946
67	0x3cf0068e	0.0293
68	0xbcaddf34	-0.021224596
69	0x3c1272a4	0.008938465
70	0x3d09d310	0.03364855
71	0xbc920033	-0.01782236
72	0x3c60f98f	0.013731374
73	0xbd2736c7	-0.040823724
74	0x3cbf3028	0.023338392
75	0x394720db	0.00018990359
76	0xbc9f6e88	-0.019461885
77	0x3c96188f	0.018322257
78	0xbc48c34a	-0.012253592
79	0xbd1ea9bb	-0.038736086
80	0x3c376d7f	0.0111955395
81	0x3c811d6a	0.015761096
82	0xbc196e65	-0.009364699
83	0xbd238344	-0.039920107
84	0xbc8f5820	-0.017498076
85	0x3c910dc2	0.017706756
86	0x3c26e9c3	0.010187569
87	0x3baa15d9	0.0051905927
88	0x3cdd6283	0.027024513
89	0x3d1791cb	0.037004273
90	0x3d4c8fc4	0.049941793
91	0x3c15124a	0.009098599
92	0xbcdb7c76	-0.026792746
93	0xbc584d14	-0.013201971
94	0x3c50f1d5	0.01275297
95	0x3c36b9da	0.011152709
96	0x3c6a2891	0.014291898
97	0x3c9ae6fe	0.018908974
98	0xbc539faf	-0.0129164895
99	0x3c8610a1	0.016365351
100	0xbcf7b245	-0.030236373
101	0x3c0f826d	0.008759123
102	0xba28b79c	-0.00064360513
103	0x3a0fdd04	0.0005487951
104	0x3c308d37	0.010775856
105	0xbb004b96	-0.0019576303
106	0x3c38d22a	0.011280576
107	0xba7d69f6	-0.00096669735
108	0x3cc23fd4	0.023712076
109	0x3b767aa5	0.0037609723
110	0x3c148d94	0.009066958
111	0x3c4a7f1c	0.012359407
112	0xbc852207	-0.016251577
113	0x3d31f3a5	0.04344525
114	0xbce27791	-0.027644904
115	0x3c10ef79	0.008846157
116	0xbd146615	-0.036230166
117	0xbc72fb33	-0.014830398
118	0x3c0127ee	0.007883055
119	0xbc975c3a	-0.018476594
120	0xbcc8b2ab	-0.024499258
121	0xbd11f2e6	-0.035632037
122	0x3d06cb44	0.032908693
123	0xbcd7315c	-0.026268654
124	0xbcc40a1b	-0.0239306
125	0x3cf21850	0.029552609
126	0xbc419ee2	-0.011817666
127	0xbd0c20f3	-0.03421111
128	0xbb80bf0b	-0.003929024
129	0xbbbc7276	-0.0057509495
130	0xbb5bf2d6	-0.003356149
131	0xba2e1723	-0.0006641021
132	0xbca72c1e	-0.020406779
133	0x3c3a7379	0.01138007
134	0x3a9b4638	0.0011846488
135	0x3c196334	0.009362031
136	0xbc76d277	-0.015064827
137	0xbbc5e8bf	-0.0060397084
138	0x3a6f24ea	0.0009122627
139	0xbbd0e06b	-0.006374409
140	0x3bc22fe8	0.005926121
141	0x3c360f08	0.011111982
142	0x3c23219a	0.009956742
143	0xbc70362e	-0.014661355
144	0xbc7457fd	-0.014913556
145	0x3b38ca95	0.002819692
146	0xbc9e6875	-0.019336918
147	0x3cbba597	0.022906108
148	0x3bc74edb	0.0060823984
149	0x3ca2aab9	0.019856798
150	0x3c418ed6	0.01181384
151	0x3c6dab92	0.014506238
152	0x3ba5cf03	0.005060078
153	0x3b24f598	0.00251708
154	0x3c08316e	0.008312566
155	0x3bbb75ef	0.005720846
156	0xbb9e1b2b	-0.004825016
157	0xb8db5359	-0.000104582585
158	0xbc871d56	-0.01649348
159	0xbc74f719	-0.014951491
160	0x3bfefa07	0.0077812704
161	0xbca24ee7	-0.019813014
162	0x3c5339fe	0.012892244
163	0x3acb2764	0.001549941
164	0x3c926c9a	0.01787405
165	0x3caa62cc	0.020799063
166	0x3aba84fd	0.0014230307
167	0xbd173450	-0.036915123
168	0xbb3ac316	-0.0028497628
169	0xbb02104b	-0.0019846137
170	0xbcc798e8	-0.024364904
171	0xbc5ede73	-0.013602841
172	0x3c889b1f	0.01667553
173	0xbbda9939	-0.0066710976
174	0x3c89d1ad	0.016823614
175	0xbce0ab5a	-0.027425457
176	0x3b168c3a	0.0022971765
177	0x3c4ae76e	0.012384279
178	0x3c2421fa	0.010017866
179	0xbc83714e	-0.016045239
180	0xbc7cc591	-0.015427963
181	0xbc057bbb	-0.008147175
182	0xbcea4455	-0.028597036
183	0xb944f66d	-0.00018783817
184	0xbc8e00ed	-0.017334426
185	0x3c417bbc	0.011809286
186	0xbc49ee20	-0.01232484
187	0xbb416231	-0.002950799
188	0xbb8582a7	-0.004074413
189	0xbbbea283	-0.0058177128
190	0xbc9219a8	-0.0178345
191	0x3b8b4ea0	0.004251316
192	0xba498e34	-0.00076887314
193	0x3c2cb415	0.010540982
194	0x3bd0ad27	0.0063682976
195	0x3c777fe8	0.015106179
196	0xbcd11f53	-0.025527632
197	0x3b810d14	0.0039383266
198	0x3cb352a7	0.021889998
199	0xbcbd1ee1	-0.023086013
200	0x3bb01858	0.0053739958
201	0xbb899652	-0.004198828
202	0x3bd9b311	0.006643661
203	0x3c5a7530	0.013333604
204	0x3b6304c3	0.003464029
205	0x3bf46653	0.007458487
206	0xbc3db63d	-0.0115790935
207	0xbcca34ad	-0.02468332
208	0x3c698529	0.014252939
209	0x3c3c58ae	0.011495752
210	0xbb21ba7f	-0.002467781
211	0xbb5619e6	-0.0032669245
212	0xbab9d4e5	-0.0014177827
213	0xbb14e47c	-0.0022719195
214	0xbbca26e8	-0.006169189
215	0xbb364c94	-0.002781664
216	0x3ccbec1f	0.024892865
217	0x3ce196dc	0.027537756
218	0x3cd9ca74	0.026585795
219	0xbc2c913a	-0.010532672
220	0xbcacc4cb	-0.021089932
221	0xbc3fc395	-0.011704345
222	0x3bf43960	0.0074531287
223	0xbba4d28a	-0.005029981
224	0xbbd127f6	-0.0063829375
225	0x3c7ec1a6	0.015549099
226	0xbc28f017	-0.010311148
227	0x3c7a6647	0.015283174
228	0xbccb0126	-0.024780821
229	0xbc5dd52e	-0.0135395955
230	0x3c723245	0.014782493
231	0x3c7b8b20	0.015352994
232	0xbbc98fd3	-0.0061511784
233	0x3c86f536	0.016474348
234	0xba09d04c	-0.0005257174
235	0xbb946178	-0.0045282207
236	0x3b16cdf3	0.002301094
237	0xbc216cb6	-0.009852579
238	0x3cd2fe01	0.025755884
239	0x3c619f6b	0.013770918
240	0xbc47dbc1	-0.0121983895
241	0x3caf0d18	0.021368548
242	0xbba67d8c	-0.0050808843
243	0xbc4c965e	-0.012487022
244	0xbc9ee835	-0.019397834
245	0xbc318857	-0.010835729
246	0x3b9f209e	0.004856183
247	0xbc2b25e2	-0.010446044
248	0xbc519807	-0.012792594
249	0x3c2d24ed	0.010567886
250	0x3cc4c234	0.024018385
251	0xbaeb24b8	-0.001794002
252	0xbcc38ed6	-0.02387182
253	0xbbf2eadb	-0.007413251
254	0xbc83d007	-0.016090406
255	0xbbfb555c	-0.0076700877

lstm.bias_ih_l0 f4 [512]
0	0x3d9fb34d	0.07797871
1	0x3dabcb16	0.08388345
2	0x3d85f0c3	0.06540062
3	0x3dc42da1	0.095790155
4	0x3d9b6503	0.07587626
5	0x3d20f277	0.039293732
6	0x3dc76048	0.09735161
7	0x3dd39f45	0.103331126
8	0x3dcc148b	0.09964856
9	0x3d9326ab	0.0718511
10	0x3d8dd51e	0.069254145
11	0x3d204d46	0.039136194
12	0x3dd2ab18	0.1028654
13	0x3dadd3fe	0.084877
14	0x3d217a81	0.03942347
15	0x3db2dfd4	0.08734098
16	0x3d9413f2	0.07230367
17	0x3cafba83	0.02145124
18	0x3d9354f9	0.071939416
19	0x3d70dd26	0.058804654
20	0xbb8c97fa	-0.004290578
21	0x3dae1c2b	0.08501466
22	0x3dd1dee6	0.10247593
23	0x3daf7ae5	0.08568362
24	0x3d89a3dd	0.067207076
25	0x3d8c1cfd	0.068414666
26	0x3da3ce77	0.079983644
27	0x3d9e8e27	0.07741957
28	0x3dc45731	0.09586943
29	0x3da3f387	0.080054335
30	0x3d8820a9	0.066468544
31	0x3d7d1cd6	0.06179508
32	0x3d81cb87	0.06337648
33	0x3d8eae86	0.069668815
34	0x3d7fa230	0.062410533
35	0x3d95ccba	0.07314439
36	0x3d41aead	0.047285724
37	0xbbd40514	-0.006470332
38	0x3dafb647	0.085796885
39	0x3dbcba24	0.09215191
40	0x3d908798	0.070571125
41	0x3dbd3c5d	0.09240029
42	0x3d3bbe3c	0.04583572
43	0x3d9901c9	0.074710436
44	0x3d92ed9f	0.07174229
45	0x3da1fcc1	0.07909537
46	0x3d67e679	0.05661628
47	0x3db45882	0.08805944
48	0x3d2bd29f	0.04194891
49	0x3da3678f	0.079787366
50	0x3d5234e7	0.051319983
51	0xbb54469a	-0.0032390715
52	0x3d85eac9	0.06538922
53	0xbbb3c650	-0.005486287
54	0x3db33976	0.08751194
55	0x3d76ded0	0.060271084
56	0x3c84e03b	0.016220203
57	0x3c72a459	0.014809691
58	0x3d52f4a0	0.051502824
59	0x3d5371d0	0.051622212
60	0x3da8fee8	0.082517445
61	0x3d8fb309	0.0701657
62	0x3dac4f4c	0.08413562
63	0x3d56df17	0.05245885
64	0x3d4b7450	0.04967147
65	0x3c640244	0.013916556
66	0x3d26d427	0.040729668
67	0x3cc5163c	0.024058454
68	0x3dd011c4	0.101596385
69	0x3de1a311	0.110174306
70	0x3d50d377	0.05098292
71	0x3ddb05df	0.10694479
72	0x3dad2aff	0.084554665
73	0x3d82cf7c	0.06387231
74	0x3c601b36	0.013678363
75	0x3cfb746f	0.030695168
76	0x3d66b45a	0.05632434
77	0xbb03e216	-0.0020123771
78	0x3d5b8080	0.053589344
79	0x3de22e45	0.110439815
80	0x3da52bef	0.0806502
81	0x3db2fdc8	0.08739811
82	0x3d7b9ab2	0.061426826
83	0x3d69ac53	0.057049107
84	0x3d6c789a	0.057732202
85	0x3db98489	0.09058482
86	0x3d43ed09	0.047833476
87	0x3d7b4bf3	0.061351728
88	0x3df7fff4	0.12109366
89	0x3dce704f	0.10080015
90	0x3df4abb1	0.1194681
91	0x3d98c508	0.07459456
92	0x3dbc80c0	0.092042446
93	0x3d6ddeb1	0.058073703
94	0x3d52db0a	0.051478423
95	0x3dafc476	0.08582394
96	0x3d8969fe	0.067096695
97	0x3d19154d	0.03737383
98	0x3d61e35e	0.055148475
99	0x3dccf5db	0.10007831
100	0x3d096d47	0.03355148
101	0x3d1237ea	0.035697855
102	0x3d815701	0.06315423
103	0x3d9d4117	0.076784305
104	0x3dbcd86a	0.09220965
105	0x3d73987a	0.059471585
106	0x3d116459	0.03549609
107	0x3d0dbfa9	0.03460661
108	0x3cf133d1	0.029443653
109	0x3d53e27e	0.05172967
110	0x3d155307	0.036456134
111	0x3daea106	0.085268065
112	0x3d862547	0.06550079
113	0x3d721adf	0.059107658
114	0x3df70a1c	0.12062475
115	0x3d4d9281	0.050188545
116	0x3d46d944	0.048547044
117	0x3d41db01	0.047328
118	0x3dc75170	0.0973233
119	0x3db0071e	0.085951075
120	0x3cc42bdb	0.023946693
121	0x3d5c0514	0.05371578
122	0x3d130b06	0.035899185
123	0xbb576d2c	-0.0032871468
124	0x3d82635b	0.06366607
125	0x3d067ec6	0.032835744
126	0x3d153b11	0.036433283
127	0x3c822cec	0.015890561
128	0x3d8c6c84	0.06856635
129	0x3d89bfee	0.06726061
130	0x3d860a09	0.06544883
131	0x3dc7db3e	0.09758614
132	0x3d94dff3	0.072692774
133	0x3c6e7bcd	0.014555884
134	0x3d93a916	0.07209985
135	0x3db9a6ed	0.09065042
136	0x3d000401	0.03125382
137	0x3da9d8a7	0.08293276
138	0x3de79b17	0.11308878
139	0x3dbd8b4b	0.09255084
140	0x3cd6ca05	0.026219377
141	0x3d87f4eb	0.06638511
142	0x3cd2f3f1	0.025751086
143	0x3d06b84c	0.032890603
144	0x3d99db37	0.07512515
145	0x3d8da649	0.06916482
146	0x3dcc4a46	0.09975104
147	0x3de9b04a	0.114105776
148	0x3d966c05	0.07344822
149	0x3dbbb8e2	0.09166123
150	0x3cfc2d49	0.030783312
151	0x3dabd108	0.08389479
152	0x3d8d08b0	0.06886423
153	0x3ce6bd13	0.02816633
154	0x3dbfbee5	0.09362582
155	0x3dd1ec81	0.10250188
156	0x3d21d2e4	0.03950776
157	0x3da1c1c4	0.07898286
158	0x3d01aa75	0.0316567
159	0x3d756106	0.059906982
160	0x3df67343	0.12033703
161	0x3b2bbe71	0.0026206041
162	0x3d728159	0.059205387
163	0x3da5d6e0	0.08097625
164	0x3d319519	0.04335508
165	0x3c2ea335	0.010659029
166	0x3d6f6344	0.058444276
167	0x3e23c9d6	0.15994963
168	0x3d832cbd	0.064050175
169	0x3d7b302b	0.061325233
170	0x3d6f77a8	0.058463722
171	0x3d8a571c	0.06754896
172	0x3d3ff216	0.04686173
173	0x3cfdced6	0.030982416
174	0x3d5edbc3	0.0544088
175	0x3da5efce	0.0810238
176	0x3d150d99	0.03638992
177	0x3dc0ee2c	0.09420428
178	0x3d1e17b5	0.038596828
179	0x3d13633a	0.0359833
180	0x3d741b99	0.05959663
181	0xbbcba69b	-0.0062149293
182	0x3c535918	0.01289966
183	0x3d70e291	0.05880982
184	0x3d1f0a12	0.038827963
185	0x3da86247	0.0822187
186	0x3d5a9c02	0.053371437
187	0x3cf48f72	0.029853556
188	0x3dab31cc	0.083591074
189	0x3d9f651e	0.077829584
190	0x3dddfd04	0.108392745
191	0x3c743b06	0.01490665
192	0x3d85c17a	0.06531043
193	0x3d75319a	0.059861757
194	0x3cf3ec2f	0.029775707
195	0x3d97f442	0.07419635
196	0x3dcf9f1e	0.10137771
197	0x3dee26dd	0.11628506
198	0x3d357a83	0.04430629
199	0x3d63aa8b	0.055582564
200	0x3de46887	0.111527495
201	0x3d184166	0.037171744
202	0x3d87e6bb	0.06635805
203	0x3ce1d7ad	0.027568663
204	0x3d8a422c	0.067509025
205	0xbcb32d36	-0.021872144
206	0x3d89bbd0	0.067252755
207	0x3e13d6ca	0.14437404
208	0x3cf462d1	0.029832276
209	0x3d89e5c5	0.06733278
210	0x3d34e0b5	0.04415961
211	0x3c2e6b79	0.010645741
212	0x3d8dd54f	0.06925451
213	0x3d8a8ed9	0.06765527
214	0x3d80b141	0.062838085
215	0x3d75f346	0.060046457
216	0x3d9acf3d	0.07559059
217	0x3d8b49fa	0.06801219
218	0x3e30418c	0.17212504
219	0x3dba2e2b	0.09090837
220	0x3e043e34	0.12914354
221	0x3d099ab7	0.033594813
222	0x3d371bc9	0.044704232
223	0x3d6fb433	0.05852146
224	0x3dc6fe9b	0.09716531
225	0x3c9f1faf	0.019424288
226	0x3d981b60	0.07427096
227	0x3dbb88dc	0.09156963
228	0x3dc08c54	0.094017655
229	0x3db02740	0.08601236
230	0x3d467474	0.048450902
231	0x3dc3927f	0.09549426
232	0x3dd9be13	0.10631957
233	0x3dd30ebb	0.10305544
234	0x3d260533	0.040532302
235	0x3d6e4a0a	0.058176078
236	0x3c7b0018	0.015319847
237	0x3c061c87	0.008185512
238	0x3db364ea	0.08759482
239	0x3d31cd94	0.043408945
240	0x3d7a71f4	0.06114383
241	0x3dd7d75b	0.10539123
242	0x3ded4aa4	0.11586502
243	0x3d9b312e	0.0757774
244	0x3da44654	0.080212265
245	0x3d04bce0	0.032406688
246	0x3d758b11	0.059947077
247	0x3de83c3f	0.11339616
248	0x3d80305d	0.062592246
249	0x3de7aeb4	0.11312619
250	0x3db1bbda	0.08678408
251	0x3d2209b7	0.039560046
252	0x3dbaebe6	0.09127025
253	0x3d3f3c37	0.046688285
254	0x3c8f1532	0.017466161
255	0x3d556ca4	0.05210556

lstm.bias_hh_l0 f4 [512]
0	0x3d8bf533	0.068338774
1	0x3d17bfb3	0.037048053
2	0x3b13864b	0.0022510465
3	0x3cf9e1cb	0.030503174
4	0x3d9af0b0	0.07565439
5	0x3b8093c4	0.003923865
6	0x3dc4596d	0.09587369
7	0x3e0194e5	0.12654455
8	0x3d7625d6	0.060094677
9	0x3d86391c	0.065538615
10	0x3d982d16	0.074304745
11	0x3d269e10	0.040678084
12	0x3daf6cba	0.0856566
13	0x3d99c853	0.07508912
14	0x3db769f5	0.089557566
15	0x3df14d69	0.11782343
16	0x3d694a4f	0.05695563
17	0x3c9e8fca	0.019355673
18	0x3db183d0	0.08667719
19	0x3dadd087	0.08487039
20	0x3d7f2761	0.062293414
21	0x3d752342	0.059848078
22	0x3d8e9794	0.06962505
23	0x3db5518e	0.08853446
24	0x3d4be14a	0.0497754
25	0x3d2a2eaa	0.04154841
26	0x3da19974	0.07890597
27	0x3d991262	0.07474209
28	0x3d4199d6	0.04726585
29	0x3dc2e1f7	0.095157556
30	0x3d8b96a4	0.06815842
31	0x3de4a28c	0.11163816
32	0x3d938074	0.07202235
33	0x3da6f0c7	0.081513934
34	0x3d6d6bb5	0.057964046
35	0x3db02213	0.08600249
36	0x3d011def	0.031522688
37	0x3c27e064	0.01024637
38	0x3d996137	0.074892454
39	0x3d8c0b7f	0.0683813
40	0x3de01e77	0.10943311
41	0x3dca6af2	0.098836794
42	0x3cbcd556	0.023050945
43	0x3d76c499	0.060246084
44	0x3d10766b	0.035269182
45	0x3d84d87c	0.064866036
46	0x3dc15485	0.09439949
47	0x3d66a5c6	0.056310438
48	0x3d4da4d3	0.050206017
49	0x3da1e4a2	0.079049364
50	0x3d3fa9cc	0.04679279
51	0x3bc6e40e	0.0060696667
52	0x3d1bdab6	0.038050376
53	0x3bf1474b	0.007363235
54	0x3d972bf4	0.0738143
55	0x3dd14d04	0.10219768
56	0x3da16778	0.07881063
57	0x3c0913de	0.008366553
58	0x3d8c0621	0.068371065
59	0x3d98fac2	0.07469703
60	0x3d64627c	0.055757985
61	0x3d6d9b47	0.058009412
62	0x3dbec656	0.09315173
63	0x3b84c5ce	0.0040519005
64	0x3db7bbeb	0.089713894
65	0x3c9cfa82	0.01916242
66	0x3d971bb3	0.0737833
67	0x3d703f96	0.05865439
68	0x3da8b385	0.08237366
69	0x3ddd0852	0.107926026
70	0x3d8b16b8	0.06791443
71	0x3dd227ab	0.10261472
72	0x3dc606a1	0.09669233
73	0x3d70030b	0.058596652
74	0x3d891054	0.066925675
75	0x3d63c752	0.05561001
76	0x3db19816	0.08671586
77	0x3d6b4551	0.057439152
78	0x3d6fe930	0.058571994
79	0x3db900b8	0.0903334
80	0x3d9ce2cb	0.07660445
81	0x3db2b34c	0.087256044
82	0x3d86582b	0.065597855
83	0x3d808876	0.06276028
84	0x3d045012	0.032302924
85	0x3d88ef07	0.06686216
86	0x3da5a33a	0.080877736
87	0x3d5d7c89	0.054073844
88	0x3d3904f6	0.045170747
89	0x3daf8767	0.08570748
90	0x3dec9b77	0.1155309
91	0x3db08ae1	0.08620239
92	0x3da2530b	0.079259954
93	0x3d712f65	0.05888309
94	0x3d72c234	0.059267238
95	0x3d5b560e	0.053548865
96	0x3d80c85c	0.062882155
97	0x3c9b2b32	0.018941496
98	0x3d76f277	0.060289826
99	0x3d84fa19	0.06493015
100	0x3d917c39	0.07103772
101	0xbc10bf90	-0.008834735
102	0x3d8a4fa0	0.067534685
103	0x3d87da99	0.06633491
104	0x3dd6ad18	0.10482234
105	0x3d480648	0.048834115
106	0x3d2c926c	0.042131826
107	0x3d496754	0.049170807
108	0x3d40acc0	0.047039747
109	0x3d68b12b	0.056809586
110	0x3cfedeff	0.031112192
111	0x3d65772e	0.05602186
112	0x3d361ce4	0.044461146
113	0x3dd025aa	0.10163434
114	0x3e1b1224	0.15143639
115	0x3ca9178a	0.020641107
116	0x3d918c20	0.07106805
117	0x3d54fd46	0.051999353
118	0x3d29845b	0.04138599
119	0x3e03a4cc	0.12855834
120	0x3daa0c11	0.08303083
121	0x3dcf94b7	0.10135787
122	0xb9b4c108	-0.00034476095
123	0xb9c9f0a9	-0.00038517013
124	0x3d9a9fd7	0.07550018
125	0x3d937d5b	0.07201644
126	0x3d6e0eff	0.05811977
127	0x3d3b2b69	0.045695696
128	0x3d810c6d	0.06301198
129	0x3d79ad0f	0.060956057
130	0x3d9f050f	0.07764637
131	0x3cfb9792	0.030711923
132	0x3da7266d	0.08161626
133	0x3d2d72a4	0.042345658
134	0x3df7a45c	0.12091896
135	0x3d72a8db	0.059243064
136	0x3dd939c5	0.10606722
137	0x3c575ccc	0.013144683
138	0x3db5b64d	0.08872662
139	0x3d814b20	0.06313157
140	0x3d957c70	0.07299125
141	0x3d2f6e60	0.04282987
142	0x3b92f3c3	0.004484625
143	0x3d8a141e	0.06742118
144	0x3bf42a96	0.0074513657
145	0x3d80f860	0.06297374
146	0x3dc70094	0.09716907
147	0x3dd99633	0.10624351
148	0x3d06ade5	0.032880682
149	0x3d5ee077	0.054413285
150	0x3de72405	0.11286167
151	0x3d3e72fa	0.04649637
152	0x3d6ab8c7	0.057305124
153	0x3d6a7d84	0.057248607
154	0x3dc97147	0.09836059
155	0x3d88b7d7	0.0667569
156	0x3c3eab62	0.0116375405
157	0x3dda3ae0	0.10655761
158	0x3d42ac43	0.047527563
159	0x3d530158	0.051514953
160	0x3dec9699	0.11552162
161	0x3dba2182	0.09088422
162	0x3cfc313c	0.030785196
163	0x3db4a7be	0.08821057
164	0x3b92d747	0.0044812295
165	0x3d673f75	0.056457
166	0x3b8123b8	0.0039410256
167	0x3e06fcb9	0.13182344
168	0x3dd264a0	0.10273099
169	0x3d76f0ce	0.060288243
170	0x3d588ae1	0.05286682
171	0x3d9e1a3b	0.07719847
172	0x3d3f2776	0.046668492
173	0x3d884629	0.06654007
174	0x3d45b3d5	0.048267204
175	0x3e005636	0.12532887
176	0x3d9eba5a	0.077503875
177	0x3d3ee5ce	0.046605878
178	0x3d92cc54	0.07167879
179	0x3c15aead	0.009135884
180	0x3d4128cc	0.047158048
181	0x3d921aed	0.07134042
182	0x3c3e0756	0.011598429
183	0x3d6420c5	0.055695314
184	0x3d5f5d8c	0.054532573
185	0x3c849a49	0.01618685
186	0x3db1b72f	0.086775176
187	0x3dabd300	0.083898544
188	0x3d6fa91a	0.058510877
189	0x3de6dd0d	0.11272631
190	0x3dbe9ad1	0.09306873
191	0x3d6ce1da	0.057832576
192	0x3b3c5157	0.0028735006
193	0x3bb6058b	0.00555486
194	0x3d477bbb	0.048701983
195	0x3db2e283	0.0873461
196	0x3db97723	0.09055927
197	0x3d26505c	0.04060398
198	0x3dbb2e40	0.09139681
199	0x3dcf63d0	0.101264596
200	0x3db32328	0.0874694
201	0x3d1caf16	0.038252912
202	0xbc5a9fc2	-0.013343753
203	0x3cceba83	0.02523542
204	0x3de2fe62	0.11083676
205	0xbb9b878d	-0.0047463835
206	0x3d0a208b	0.03372244
207	0x3df10133	0.11767807
208	0x3db4a8c4	0.08821252
209	0x3d03d88f	0.03218895
210	0x3d38e184	0.045136943
211	0x3c51db2b	0.012808601
212	0x3cb8db52	0.022565518
213	0x3dabb8f5	0.08384887
214	0x3d37acb6	0.044842444
215	0x3da3c229	0.079960175
216	0x3db18c87	0.086693816
217	0x3d67dd12	0.056607313
218	0x3e228906	0.15872583
219	0x3d86c95f	0.06581377
220	0x3db9f823	0.090805314
221	0x3da30f3f	0.07961892
222	0x3d91a593	0.07111659
223	0x3d6dd287	0.058062103
224	0x3db4341c	0.087990016
225	0x3d3d4962	0.04621256
226	0x3dae2579	0.08503241
227	0x3dff4bbb	0.12465616
228	0x3dae2b2b	0.085043274
229	0x3dc852c7	0.097814135
230	0x3db10aa5	0.086446084
231	0x3da63098	0.08114737
232	0x3d371231	0.044695083
233	0x3d76a6a1	0.060217503
234	0x3d0b7835	0.034050185
235	0x3d90384e	0.07041989
236	0x3bd54472	0.0065084035
237	0x3db8d6b5	0.09025327
238	0x3d8cd1c6	0.068759486
239	0x3db8b0db	0.090181075
240	0x3d3038ad	0.0430228
241	0x3d1ec9c4	0.038766637
242	0x3e069df6	0.13146195
243	0x3d8c6d95	0.068568386
244	0x3de4f8fc	0.111803025
245	0x3d13a44a	0.03604535
246	0x3d2db241	0.042406324
247	0x3da42508	0.08014876
248	0x3d36a892	0.044594355
249	0x3d9761f8	0.07391733
250	0x3da51cdd	0.08062146
251	0x3c5f5fe1	0.013633699
252	0x3dd6ce53	0.10488572
253	0x3db0d99a	0.08635254
254	0x3d328127	0.0435802
255	0x3d17428c	0.0369287

lstm.weight_ih_l1 f4 [512, 128]
0	0xbc7fe8d4	-0.015619475
1	0x3becf374	0.0072311703
2	0x3cad38a4	0.021145172
3	0xba9e132e	-0.0012060159
4	0xbc106e2f	-0.008815332
5	0x3b0a557c	0.0021108082
6	0x3b17fb7c	0.0023190668
7	0xb9fc60c8	-0.00048137293
8	0x3c641546	0.013921088
9	0xbbf6d1e2	-0.007532344
10	0x3cba626c	0.02275201
11	0xbc677486	-0.014126902
12	0x3b43ba8c	0.002986583
13	0x3cbe9c9c	0.023268037
14	0xbaae0fa0	-0.0013279803
15	0x3b9cb89d	0.00478275
16	0xbb5a955f	-0.0033353192
17	0x3b55cfd1	0.003262509
18	0x3add99c4	0.0016906788
19	0x3bdc9c23	0.00673248
20	0x3bba3646	0.0056827394
21	0x3bd634c7	0.0065370533
22	0x3c364a29	0.01112608
23	0xbbee9ce8	-0.0072818883
24	0x3c4cc38a	0.012497792
25	0x3c81b26b	0.015832147
26	0xbc9928d3	-0.018696224
27	0xbcda2a55	-0.026631514
28	0xbc435f8b	-0.011924635
29	0x3c5090ff	0.012729882
30	0x3bf3098e	0.0074169105
31	0xbbcbbf56	-0.0062178774
32	0xbc125685	-0.008931761
33	0x3786a808	1.605229e-05
34	0xb98d2a26	-0.0002692502
35	0x3c409f82	0.01175678
36	0xbb6def19	-0.0036305843
37	0x3aefdd9f	0.0018300301
38	0x3c506bb1	0.012720988
39	0xbc9040ae	-0.017608967
40	0x3be3975b	0.006945533
41	0x3c55ec58	0.013056837
42	0xbc2717e3	-0.010198566
43	0x3a228dc1	0.00062009325
44	0xbb39ac14	-0.0028331326
45	0x3c2facf5	0.0107223885
46	0x3cb2b892	0.021816526
47	0xbc9fb60c	-0.019495986
48	0x3c9f95ff	0.019480703
49	0xbc8763e1	-0.016527118
50	0x3b5f88ef	0.0034108718
51	0xbcb1dc97	-0.02171163
52	0x3b3a7a4d	0.0028454245
53	0xbc10987e	-0.0088254195
54	0xbc99721e	-0.018731173
55	0x3c2baac4	0.010477725
56	0x3c28ef1c	0.010310914
57	0xbb96efe8	-0.004606236
58	0xbc612162	-0.013740869
59	0x3c37cea3	0.0112187
60	0xbc6921d6	-0.0142292585
61	0xbcd24cf4	-0.02567146
62	0xbbfd5d36	-0.007732059
63	0x3c9fd321	0.019509854
64	0xbc4c67ac	-0.012475889
65	0x3cc26c0e	0.023733165
66	0x3c1be24f	0.009514405
67	0x3c9f5978	0.019451842
68	0xbcb8d919	-0.022564458
69	0x3be26c20	0.006909862
70	0x3cf69796	0.030101579
71	0xbc46cf45	-0.012134378
72	0x3c3ad3df	0.011403053
73	0xbcd23899	-0.025661753
74	0x3b262cb0	0.0025356226
75	0x3b456971	0.0030122662
76	0xbb873ecc	-0.004127359
77	0x3c36ab3e	0.011149226
78	0xbc55e092	-0.01305403
79	0xbc9dad19	-0.019247578
80	0xbc0fd45e	-0.00877866
81	0xbb0614c6	-0.002045916
82	0xbbf3972b	-0.007433792
83	0xbc788cec	-0.015170317
84	0x3b041b83	0.0020158
85	0xbbd8fa13	-0.006621608
86	0x3c5376f0	0.012906775
87	0xbc66a8d1	-0.014078335
88	0x3c361dcf	0.011115505
89	0x3cdf2dbb	0.027243486
90	0x3d242cf8	0.040081948
91	0x3b74e0a9	0.0037365353
92	0xbcc2d871	-0.023784848
93	0x3c287529	0.010281839
94	0x3c746c8c	0.014918458
95	0xb8dff25e	-0.00010678613
96	0x3ba48360	0.005020544
97	0xbba613da	-0.0050682845
98	0xbb9e2025	-0.0048256093
99	0x3c0c9a9f	0.008581786
100	0xbcc76da2	-0.02434427
101	0xbb22344f	-0.0024750417
102	0xb9af01d5	-0.00033379966
103	0x3a9e9060	0.001209747
104	0xbb505eb2	-0.0031794724
105	0xbae67bf6	-0.0017584551
106	0xbbd60a6d	-0.0065320046
107	0xbaeb52f6	-0.0017953801
108	0x3c5bf1d7	0.013424358
109	0xbbc09dea	-0.0058782
110	0xbb0139e8	-0.0019718353
111	0x3c2b2c8c	0.0104476325
112	0xbbb5c19e	-0.0055467626
113	0x3b97d24f	0.004633225
114	0xbbe072c5	-0.006849619
115	0xbb0a7cca	-0.002113151
116	0xbc920b53	-0.017827665
117	0xbc54a590	-0.012978926
118	0x3cac2a42	0.021016244
119	0xbc0992fc	-0.00839686
120	0xbc4fcee2	-0.012683602
121	0xbca907fe	-0.020633694
122	0x3b453022	0.0030088504
123	0xbb2d48e3	-0.002644115
124	0xbc3e3100	-0.011608362
125	0xbbbc0702	-0.00573814
126	0x3bacd5fa	0.0052745314
127	0xbcca9aae	-0.02473196
128	0xbc866778	-0.01640676
129	0x3b86f420	0.0041184574
130	0x3c963605	0.018336305
131	0xbc329ce2	-0.010901662
132	0xbc26bd59	-0.01017698
133	0xbbb207b2	-0.0054330463
134	0xbc6fab9b	-0.014628316
135	0x3b991315	0.004671464
136	0x3c8b391f	0.01699501
137	0xbc839d3c	-0.016066186
138	0x3d0cdb40	0.03438878
139	0xbc333a25	-0.010939156
140	0x3c508fa4	0.012729559
141	0x3c9afd92	0.01891974
142	0x3ae359bf	0.0017345472
143	0xbc1b1078	-0.009464376
144	0x3b8892ab	0.004167875
145	0xb7e9e2f5	-2.788145e-05
146	0xb8a653da	-7.9311154e-05
147	0x3b4f1e56	0.0031603775
148	0x3c8f756e	0.01751205
149	0x3c870284	0.016480692
150	0x3c3c5216	0.01149418
151	0xbc3b472d	-0.011430544
152	0x39e829ce	0.00044281635
153	0x3cb51641	0.022105338
154	0xbb73840c	-0.0037157563
155	0xbc52c9fd	-0.012865541
156	0xbc483b25	-0.012221132
157	0x3c9066f5	0.017627219
158	0x3bbb700d	0.0057201446
159	0xbb6b0c19	-0.0035865365
160	0xbc42b971	-0.011885033
161	0xbc08fc2e	-0.008360906
162	0x3c71f4ec	0.014767867
163	0x3a956bdb	0.0011399941
164	0xbab78e71	-0.0014004243
165	0x3a7e5f76	0.0009703556
166	0x3c8dfb0c	0.017331623
167	0xbcb17e5c	-0.021666698
168	0xb8a18205	-7.701296e-05
169	0x3c9b88d7	0.018986149
170	0xba19bca1	-0.0005864595
171	0x3a84ca33	0.0010131061
172	0x3bd24a1a	0.006417525
173	0x3bbfda1b	0.0058548576
174	0x3c86a21d	0.016434724
175	0xbca02b3f	-0.019551871
176	0x3ca3a64f	0.019976763
177	0x3bebcf98	0.007196378
178	0x3b691dc6	0.0035570725
179	0xbc7baa3d	-0.015360412
180	0x3be2c3a6	0.006920296
181	0xbbf26adc	-0.0073979925
182	0xbc235002	-0.009967806
183	0x3b2efcb2	0.002670091
184	0x3c0a49f8	0.008440487
185	0x3c72383f	0.014783918
186	0x3b75a93c	0.0037484905
187	0x3ca5cbb1	0.02023873
188	0xbc701ca4	-0.014655266
189	0xbcc0084d	-0.023441458
190	0xbae6d347	-0.0017610573
191	0x3ce916fb	0.02845334
192	0xbbbfa767	-0.0058488133
193	0x3c9ee064	0.019394107
194	0x3c9b2ec1	0.018943192
195	0x3c4c6b0e	0.012476696
196	0xbc6c8de2	-0.014438124
197	0x3ba1ea64	0.0049412716
198	0x3c9e614a	0.0193335
199	0xbc8f4796	-0.01749019
200	0x3b490605	0.0030673754
201	0xbcd960f1	-0.026535483
202	0x3c2fb289	0.010723718
203	0x3c9e9f20	0.019362986
204	0xbb607e31	-0.0034254903
205	0x3c171c68	0.009223081
206	0xbc83c592	-0.01608542
207	0xbd32fb38	-0.043696612
208	0xbb0b1044	-0.0021219412
209	0xbc3389be	-0.010958133
210	0x3c21d4b0	0.009877369
211	0xbc2d2a25	-0.01056913
212	0xbba2b385	-0.004965248
213	0x3a7177be	0.00092112634
214	0x3c8e7a07	0.017392172
215	0x3b4892b2	0.0030605015
216	0x3c635ea0	0.013877541
217	0x3ca4f4b4	0.020136215
218	0x3cbcf8b1	0.023067804
219	0x3cf80ccf	0.030279545
220	0xbc86761e	-0.016413745
221	0x3bd5dc8f	0.006526537
222	0x3c8585cd	0.016299153
223	0xbc35cfae	-0.011096878
224	0x3c14c475	0.009080042
225	0x3b480327	0.0030519457
226	0xbc204f9b	-0.009784604
227	0x3b5bc676	0.003353504
228	0xbcc74cc5	-0.024328599
229	0x3bf2afa0	0.00740619
230	0xbb9d92a3	-0.00480874
231	0x3c3f9ed2	0.011695581
232	0x3b9c3a8c	0.0047677215
233	0xbc3a9de7	-0.011390186
234	0xbc989050	-0.018623501
235	0xbb68326a	-0.003543044
236	0x3bbfb3ca	0.00585029
237	0x3b7ea4db	0.0038855586
238	0x3c2b97a2	0.010473164
239	0x3c6357e0	0.0138759315
240	0xbc528bb2	-0.012850689
241	0xbabc3d32	-0.0014361499
242	0xbb4aae34	-0.0030926587
243	0x3c40a949	0.011759111
244	0x3bc3784e	0.005965269
245	0x3b72dc5e	0.0037057619
246	0x3c565114	0.013080854
247	0x3ade1e27	0.0016946242
248	0xbc7d336e	-0.015454156
249	0xbcc3d3be	-0.023904677
250	0x3c2ed1c0	0.0106701255
251	0xbb3fe37e	-0.0029279883
252	0xbca60ce0	-0.020269811
253	0x3b6d7a10	0.0036236085
254	0xba2cfb9f	-0.0006598774
255	0xbc51f809	-0.012815484

lstm.weight_hh_l1 f4 [512, 128]
0	0x3cc3e205	0.023911485
1	0xbc9db8e1	-0.019253196
2	0x3be27347	0.006910715
3	0xbca6a88a	-0.020344038
4	0x3c758616	0.014985582
5	0x3c45f69d	0.012082723
6	0x3ca7e0e8	0.020492986
7	0xbcb2dbb4	-0.021833278
8	0xbc69c6d4	-0.014268596
9	0xbd0c5002	-0.03425599
10	0x3cd2f46e	0.025751319
11	0xbc68b8cd	-0.014204216
12	0x3ccc4e21	0.024939599
13	0xbb8da028	-0.0043220706
14	0xbc105071	-0.008808241
15	0xbc4f30bf	-0.012645899
16	0xbc930301	-0.017945768
17	0x3c471c1b	0.012152697
18	0x3c52b530	0.012860581
19	0xbad24db3	-0.0016044885
20	0x3c32472a	0.010881225
21	0x3be52bec	0.0069937613
22	0xbc69731d	-0.014248637
23	0x3aa135c7	0.0012299352
24	0x3ca0f96e	0.019650187
25	0x3c35d7f3	0.01109885
26	0xb85e8eac	-5.3061798e-05
27	0x3d0aa697	0.03385028
28	0x3bcce215	0.006252537
29	0xbcd5e96a	-0.026112277
30	0x3cea12e0	0.028573453
31	0x3c6830ca	0.0141717885
32	0x3a2fbccb	0.00067038526
33	0x3c75df0c	0.015006792
34	0x3c405940	0.011740029
35	0x3d13d2b8	0.03608963
36	0xbb8290e3	-0.003984557
37	0x3cde52da	0.027139116
38	0x3c4b65eb	0.012414436
39	0xbbf42479	-0.007450637
40	0xbcd13819	-0.025539445
41	0x3d132c03	0.035930645
42	0x3cbb9031	0.022895904
43	0xbcecfca4	-0.028929062
44	0x3cb80919	0.022465276
45	0x3c90b3af	0.017663805
46	0xbcd8e8d6	-0.026478212
47	0x3c9b9c10	0.018995315
48	0x3ca95dcc	0.020674609
49	0x3cc0f219	0.023552941
50	0x3cb7362b	0.022364696
51	0x3c1c6e25	0.009547745
52	0x3cf59026	0.029975962
53	0x3ba27346	0.0049575893
54	0xbc70b29e	-0.014691023
55	0xbca8e539	-0.020617114
56	0x3c96c5be	0.018404838
57	0xbcec8eee	-0.028876748
58	0x3ca14426	0.019685816
59	0x3cd9a082	0.026565794
60	0x3c2fca28	0.01072935
61	0xba8fa8b5	-0.0010960313
62	0x3b992595	0.0046736696
63	0x3b81b29f	0.003958061
64	0xba51fe2b	-0.0008010591
65	0xbc781291	-0.015141145
66	0x3baa3b2c	0.005195042
67	0x3cb8eef6	0.022574883
68	0xbd180725	-0.03711619
69	0x3cc1562f	0.023600666
70	0xbcb9f479	-0.022699581
71	0xbd07b466	-0.033131026
72	0x3c2e623d	0.010643539
73	0xbcb3392b	-0.021877846
74	0x3b699bde	0.0035645883
75	0x3a227652	0.00061974407
76	0xbaa5aa66	-0.0012639284
77	0xbca66397	-0.02031116
78	0xbcb18342	-0.021669034
79	0x3c060d87	0.008181936
80	0xbce3f1fa	-0.027825344
81	0xbcf54aae	-0.029942837
82	0x3c417db2	0.011809753
83	0x3bf12ec0	0.0073603094
84	0x3c2fbfe4	0.010726903
85	0xbcca7760	-0.024715126
86	0xbcb73bbd	-0.022367353
87	0x3d0beb48	0.03415993
88	0x3c37feaf	0.011230155
89	0xbc899a9f	-0.016797362
90	0x3ce36540	0.02775824
91	0xbd077ce5	-0.033078093
92	0x3c827701	0.015925886
93	0xbcaea3eb	-0.021318397
94	0x3cc81f91	0.024429115
95	0xbce304e2	-0.02771229
96	0x3cdb8345	0.026795993
97	0x3c313235	0.010815193
98	0xbb64fd92	-0.0034941179
99	0x3cd6b5ba	0.0262097
100	0x3ab07d20	0.0013465025
101	0x3bd16aa5	0.006390887
102	0x3c18550a	0.009297619
103	0xbb2fb991	-0.0026813487
104	0xbcc82529	-0.024431782
105	0x3b87053f	0.0041204984
106	0x3bebb1f9	0.007192847
107	0xbc2e67cc	-0.010644864
108	0x3be5efbb	0.0070171035
109	0x3d152842	0.036415346
110	0x3c025105	0.007953887
111	0x3bcb0dda	0.0061967196
112	0x3aa1de3b	0.0012349555
113	0xbc3498b0	-0.011022732
114	0x3c1a74ca	0.009427259
115	0xbc40a12e	-0.011757178
116	0x3b63ffa8	0.0034789834
117	0x3be28ba1	0.0069136177
118	0xbcdc55f5	-0.026896456
119	0xbab09015	-0.0013470674
120	0x3ba7ede1	0.005124793
121	0xbcc16234	-0.023606397
122	0xbcc9191b	-0.024548104
123	0xbca8bed3	-0.020598805
124	0x3c4a9362	0.01236424
125	0xbb7d4477	-0.0038645545
126	0xbcb9af1a	-0.022666503
127	0xbcb1e4c1	-0.021715524
128	0x3cf2d76c	0.029643737
129	0xbc7096f5	-0.014684428
130	0x3c162ff5	0.009166707
131	0xbcd8df6c	-0.026473723
132	0x3c202490	0.009774342
133	0xbc1cbb45	-0.009566133
134	0x3cd34f74	0.025794722
135	0xbcf28f04	-0.02960921
136	0xbc417953	-0.011808711
137	0xbd1aca09	-0.037790332
138	0x3cb0216f	0.021500317
139	0xbcd79fa6	-0.026321243
140	0x3d3af6bc	0.04564546
141	0xbadaae3f	-0.001668401
142	0x3b05707c	0.0020361235
143	0x3c617c96	0.013762614
144	0xbd205cab	-0.039150875
145	0x3c6951f4	0.014240731
146	0xbc68893b	-0.014192875
147	0xba2f16da	-0.00066791254
148	0xbcc0afb5	-0.023521284
149	0x3c82deb4	0.015975334
150	0xbca3bc37	-0.019987209
151	0x3ba6cad4	0.005090097
152	0x3cf5826f	0.029969422
153	0x3ced366c	0.028956614
154	0x3cbc3e77	0.022979004
155	0x3ccedf30	0.025252908
156	0x3bd85ce0	0.0066028684
157	0xbb8855a5	-0.0041606002
158	0x3d1a8f7b	0.03773449
159	0xbb567f04	-0.0032729516
160	0x3b0faa45	0.0021921557
161	0x3d0e8ea6	0.03480401
162	0x3c9dd434	0.019266225
163	0x3cfa557c	0.03055834
164	0xba88ee90	-0.0010447074
165	0x3cfdf727	0.03100164
166	0x3c257691	0.010099069
167	0xba9639c8	-0.0011461312
168	0x3b456b74	0.0030123862
169	0x3c2948b8	0.010332279
170	0xbc591c98	-0.013251446
171	0xbd3c0cdd	-0.045910705
172	0x3ba8e8ee	0.0051547205
173	0x3b80d71f	0.0039318944
174	0xbce112e4	-0.027474828
175	0x3bad3a32	0.0052864784
176	0x3c7c29d8	0.015390836
177	0x3d104343	0.035220396
178	0xbb87a3d2	-0.004139402
179	0xbbd45297	-0.006479572
180	0x3cdaaeb8	0.02669464
181	0xbc4b256e	-0.012399061
182	0x3962166b	0.00021561391
183	0x3b3ca9b8	0.0028787684
184	0x3cfcc99b	0.030857852
185	0xbc96b06b	-0.01839467
186	0xbbd88b2b	-0.006608387
187	0x3d009b8c	0.03139834
188	0x3cf1d7fb	0.029521933
189	0xbc37a978	-0.011209838
190	0x3a3769f8	0.00069966866
191	0xbca5c990	-0.020237714
192	0xbc160e4c	-0.009158682
193	0xbb088b0f	-0.0020834839
194	0xbba65cfc	-0.0050770026
195	0x3cf961c9	0.030442135
196	0xbc4017cf	-0.011724426
197	0x3cbbfb5c	0.022947006
198	0xbcda3754	-0.02663771
199	0xbc8f91fb	-0.017525664
200	0x3d206c6c	0.0391659
201	0xbc51e5bf	-0.012811123
202	0x3c9ec828	0.019382551
203	0x3c48a22f	0.012245699
204	0x3cc55f74	0.024093367
205	0xbd113c9e	-0.0354582
206	0xbc93633f	-0.01799166
207	0x3cb1d90c	0.021709941
208	0xbd509f60	-0.05093324
209	0xbd251ae7	-0.04030886
210	0x3bcc3c6e	0.0062327897
211	0x3cfd329c	0.030907921
212	0x3bda0668	0.0066535957
213	0xbcae43e1	-0.021272602
214	0xbd05ebe5	-0.03269567
215	0x3d355beb	0.044277113
216	0x3c6635f5	0.01405095
217	0xbb51d3fb	-0.003201722
218	0x3cc1363c	0.023585431
219	0xbd2d93a1	-0.042377118
220	0x3ce57d94	0.028013982
221	0xbc30bd94	-0.010787386
222	0x3ca4f366	0.020135593
223	0xbd05a2d5	-0.03262599
224	0x3c31a384	0.010842208
225	0xbc3a6997	-0.011377714
226	0x3abd33b4	0.0014434964
227	0x3d11d805	0.035606403
228	0x3bdce8c4	0.006741615
229	0xbb19cb0d	-0.0023466975
230	0xba8399e5	-0.0010040371
231	0xbca8366c	-0.020533763
232	0xbc23f2c3	-0.010006609
233	0xbc15433f	-0.009110271
234	0x3c84dace	0.016217615
235	0xbb5af6b7	-0.0033411214
236	0xbc73451e	-0.014848022
237	0x3d31fac5	0.043452043
238	0xbb447bdb	-0.002998105
239	0x3ba18eaf	0.0049303393
240	0xbca39954	-0.019970573
241	0xbc7c63a2	-0.015404614
242	0x3c02301a	0.007946039
243	0xbc400dfd	-0.011722085
244	0x3c830205	0.015992174
245	0x3ccd64a8	0.02507241
246	0xbcf18df9	-0.029486643
247	0x3b6ec9a0	0.0036436096
248	0x3c26c457	0.010178647
249	0xbc860443	-0.016359454
250	0xbb5a2460	-0.0033285841
251	0xbd135c2c	-0.035976574
252	0x3c00dbb3	0.00786488
253	0xbc0f8584	-0.00875986
254	0xbce96279	-0.028489338
255	0xbcc53d36	-0.02407704

lstm.bias_ih_l1 f4 [512]
0	0x3dd007b1	0.10157717
1	0x3d170bc4	0.036876455
2	0x3d23e0c0	0.04000926
3	0x3d754a03	0.059885036
4	0x3d9e3923	0.07725742
5	0x3daa2cd4	0.083093315
6	0x3d5708c1	0.052498583
7	0x3d3dd1d1	0.046342675
8	0x3de43a67	0.11143952
9	0x3dbfd8bc	0.09367511
10	0x3d42d74f	0.047568616
11	0x3d0fd966	0.035119437
12	0x3d8d5dba	0.069026425
13	0x3d59e625	0.053198
14	0x3cef0a09	0.02917959
15	0x3d69d4c8	0.05708769
16	0x3d60b26d	0.05485766
17	0x3d4ab24b	0.04948644
18	0x3d0c05b8	0.03418514
19	0x3d8bec75	0.0683221
20	0x3d4be967	0.049783137
21	0x3d2e4c08	0.042552978
22	0x3d86d719	0.06583995
23	0x3cd108ab	0.025516829
24	0x3d605b7f	0.054774757
25	0x3d4dbd2b	0.050229233
26	0x3d5b8b81	0.05359984
27	0x3d3898f7	0.045067754
28	0x3d1f1fd4	0.038848713
29	0x3d16a968	0.036782652
30	0x3da27082	0.079316154
31	0x3d9b0fcc	0.075713724
32	0x3d839c62	0.06426312
33	0x3daf41b1	0.085574515
34	0x3d62388a	0.0552297
35	0x3d9ac64c	0.075573534
36	0x3d2fb36c	0.04289572
37	0x3dac1881	0.08403111
38	0x3d8622d0	0.06549609
39	0x3d561b19	0.052271936
40	0x3d52bcaf	0.051449474
41	0x3d77ae6f	0.060469087
42	0x3d4fe835	0.05075856
43	0x3da0c9ab	0.07850965
44	0x3d68d847	0.056846883
45	0x3d3f6288	0.046724826
46	0x3d6055bd	0.054769266
47	0x3d9a252c	0.07526621
48	0x3d77a54d	0.060460377
49	0x3d884d94	0.06655422
50	0x3d99516c	0.07486233
51	0x3d3f3817	0.04668435
52	0x3d67251d	0.05643188
53	0x3d873104	0.06601146
54	0x3d9c3806	0.07627873
55	0x3d377a55	0.0447944
56	0x3d3eb48d	0.046558905
57	0x3dbc78fc	0.092027634
58	0x3daf3b83	0.08556273
59	0x3d5e3bcc	0.054256245
60	0x3d5ddf6f	0.05416816
61	0x3d88c87f	0.066788666
62	0x3d52780b	0.051384013
63	0x3d7b3603	0.061330806
64	0x3d3a31ad	0.04545753
65	0x3d0ad741	0.03389669
66	0x3d47df3b	0.048796874
67	0x3d565992	0.052331515
68	0x3da68f41	0.08132792
69	0x3d800c96	0.062524006
70	0x3d85325b	0.06503745
71	0x3dad4c63	0.08461835
72	0x3d9126d3	0.07087483
73	0x3dc53426	0.09629087
74	0x3d30eb3f	0.0431931
75	0x3da75d24	0.08172062
76	0x3d9f333b	0.07773443
77	0x3d0351ef	0.03206056
78	0x3d7d97b0	0.06191224
79	0x3d94482c	0.07240328
80	0x3d61365f	0.054983493
81	0x3d492b75	0.04911371
82	0x3d3c6dfc	0.046003327
83	0x3d753f2b	0.059874695
84	0x3d76986b	0.06020395
85	0x3d47c09f	0.048767682
86	0x3d4be072	0.049774595
87	0x3d88f2c9	0.066869326
88	0x3d13cf5c	0.036086425
89	0x3d6981e1	0.057008628
90	0x3d691836	0.056907855
91	0x3d91d2b7	0.07120269
92	0x3d72cfc3	0.05928017
93	0x3d8821d4	0.06647077
94	0x3d78b986	0.060723804
95	0x3d8cf077	0.068818025
96	0x3d6c37f6	0.057670556
97	0x3d2582f0	0.040408075
98	0x3da556d9	0.080732055
99	0x3db107e2	0.08644082
100	0x3d6dcc93	0.058056425
101	0x3d4b39d8	0.04961571
102	0x3cf11b24	0.029431887
103	0x3d63293e	0.055459253
104	0x3d7f29da	0.062295772
105	0x3cf835f6	0.030299168
106	0x3d8749d8	0.066058815
107	0x3d930f49	0.0718065
108	0x3d8a9dbf	0.06768369
109	0x3d3537f0	0.0442428
110	0x3cc7b50f	0.024378328
111	0x3d8d6281	0.06903554
112	0x3dd22183	0.10260298
113	0x3db50290	0.088383794
114	0x3da93e2c	0.082638115
115	0x3d955407	0.072914176
116	0x3d8ccf33	0.068754576
117	0x3d89baa5	0.06725053
118	0x3d5703ef	0.052493986
119	0x3d80c9d7	0.06288498
120	0x3d1df62c	0.038564846
121	0x3d5534da	0.052052356
122	0x3d3259da	0.04354272
123	0x3d53b260	0.051683784
124	0x3d11c8fd	0.035592068
125	0x3d9b0e7c	0.07571122
126	0x3d42b657	0.047537174
127	0x3d9aaea4	0.07552841
128	0x3dcc8f50	0.09988272
129	0x3d744d13	0.059643816
130	0x3d2c4f62	0.042067893
131	0x3d90ac77	0.07064145
132	0x3d4f4e9b	0.050612073
133	0x3d8fa146	0.07013182
134	0x3d80f215	0.062961735
135	0x3d3d8133	0.046265792
136	0x3d9ef52e	0.07761608
137	0x3d961499	0.073281474
138	0x3d76bb4e	0.06023722
139	0x3c2ba454	0.010476191
140	0x3dd8fbfb	0.105949365
141	0x3d00280e	0.0312882
142	0x3d246aa2	0.040140755
143	0x3cd68fd2	0.026191626
144	0x3d0b1aa8	0.03396097
145	0x3bc9b609	0.0061557335
146	0x3cfa5f15	0.030562917
147	0x3d28f85a	0.04125247
148	0x3d8e3350	0.06943381
149	0x3d5b4c01	0.05353928
150	0x3d0ba9ff	0.034097668
151	0x3d7565b7	0.059911456
152	0x3d1bd380	0.0380435
153	0x3c8a07d5	0.016849438
154	0x3d7e8b13	0.06214435
155	0x3dacc6df	0.08436369
156	0x3d6139c7	0.05498674
157	0x3d8984cc	0.06714782
158	0x3da5f802	0.08103944
159	0x3d322575	0.043492753
160	0x3d4dea9d	0.050272573
161	0x3d94c569	0.072642155
162	0x3d1209ef	0.035654005
163	0x3db27d07	0.08715253
164	0x3d41fd29	0.047360573
165	0x3d0c973b	0.034323912
166	0x3cbca61e	0.02302843
167	0xbba20983	-0.0049449815
168	0x3d8e5969	0.069506474
169	0x3d10eeeb	0.0353841
170	0x3d45b14a	0.04826478
171	0x3d8e075e	0.06934999
172	0x3d440336	0.047854625
173	0x3cfc9f47	0.030837668
174	0x3d524582	0.05133582
175	0x3d4f8855	0.050667126
176	0x3d6d4cbd	0.05793451
177	0x3dc33c6f	0.09533011
178	0x3cf9c90b	0.030491373
179	0x3d3975d2	0.045278378
180	0x3d8a5b55	0.067557015
181	0x3d863730	0.06553495
182	0x3d5dbae7	0.054133322
183	0x3d766780	0.0601573
184	0x3d29a972	0.04142136
185	0x3dcffe2f	0.101559035
186	0x3dcb7598	0.099345386
187	0x3d4e8646	0.050421022
188	0x3d1da8e3	0.03849114
189	0x3d3fe9fb	0.046854
190	0x3d1887a6	0.03723874
191	0x3db92d42	0.09041835
192	0x3d24d44a	0.040241517
193	0x3d29e0d4	0.04147418
194	0x3d0ba295	0.034090597
195	0x3c807822	0.015682284
196	0x3d8606ee	0.065442905
197	0x3da4ebad	0.08052764
198	0x3d8c0487	0.06836801
199	0x3dda1801	0.1064911
200	0x3d342906	0.043984435
201	0x3ddbd26a	0.10733493
202	0x3d803a5d	0.06261132
203	0x3d76e5da	0.060277797
204	0x3d88afb5	0.066741385
205	0x3d45c15c	0.048280105
206	0x3dbbaf1c	0.09164259
207	0x3d700466	0.058597945
208	0x3da2d95e	0.07951616
209	0x3d255a15	0.040369112
210	0x3c1cd045	0.00957114
211	0x3da01b22	0.07817675
212	0x3d8fb5db	0.07017108
213	0x3d91ea12	0.071247235
214	0x3d7359f6	0.059411965
215	0x3d8f6e11	0.070034154
216	0x3d1e295e	0.03861367
217	0x3d814293	0.06311526
218	0x3d92e45a	0.07172461
219	0x3d89b15c	0.06723282
220	0x3c9b9f0f	0.018996743
221	0x3d83a6d6	0.06428306
222	0x3d02bc1a	0.03191767
223	0x3dd381d5	0.10327498
224	0x3d81fd83	0.06347182
225	0x3d3e4ca3	0.046459805
226	0x3dca084d	0.098648645
227	0x3caca0d9	0.021072792
228	0x3d6eafaa	0.058272995
229	0x3d8a7a5f	0.06761622
230	0x3d9eabf6	0.07747643
231	0x3d339525	0.043843407
232	0x3d6dea02	0.058084495
233	0x3d668658	0.056280464
234	0x3d6833d4	0.056690052
235	0x3d693537	0.056935515
236	0x3d524b6c	0.05134146
237	0x3da01cb3	0.07817974
238	0x3d7641cb	0.06012134
239	0x3d5c1738	0.05373308
240	0x3dee2ea7	0.11629992
241	0x3d3a5fba	0.04550145
242	0x3d82a73f	0.06379556
243	0x3cbbf04c	0.02294173
244	0x3da0cbb3	0.078513525
245	0x3de073f9	0.1095962
246	0x3d3ff9a1	0.046868924
247	0x3da137e5	0.07871989
248	0x3d2456ed	0.04012196
249	0x3d0c2cd1	0.034222428
250	0x3d77967e	0.060446255
251	0x3d5f5102	0.054520614
252	0x3d4f8f98	0.05067405
253	0x3d58426a	0.052797712
254	0x3d90b928	0.07066566
255	0x3db0aaa5	0.08626298
