runs/exp5/last.pt (torch, 853347 bytes, 10 tensors)

lstm.weight_ih_l0 f4 [512, 26]
0.015468418 -0.05566525 0.031238388 -0.07973105 -0.0045810593 -0.030201498 0.053410728 -0.08122988
0.0049801273 -0.036178038 0.023413545 -0.01869665 -0.034629542 -0.039809823 0.023568628 -0.02079712
0.0014576055 0.006950578 0.0020617223 0.01542424 -0.032191705 0.03025852 -0.02374766 0.034254674
-0.050544806 0.080208085 0.06317477 -0.027810438 0.010103093 0.039905906 0.005380008 0.010191762
0.053519443 0.02747488 -0.0010558985 -0.03305952 0.029061733 -0.034147013 -0.026610402 -0.055632416
-0.03167368 0.050064027 -0.059141118 0.03744886 0.016283376 -0.009521545 -0.021865997 -0.008947872
-0.026052922 -0.013997264 -0.062185336 0.011236989 -0.06723692 -0.020182386 -0.040526256 -0.094769254
-0.0038065058 -0.03996172 -0.024980612 -0.03774731 0.021396823 -0.025423191 -0.0045111645 0.023537938
0.002403202 0.00058087526 -0.030376043 -0.05211784 -0.033602912 -0.03472008 -0.016184757 0.041182093
-0.009736323 0.08562481 0.04866674 0.029900864 -0.016212313 0.06468385 0.06709232 -0.054266535
0.08042437 -0.0101591265 0.006800928 -0.049071185 0.047393695 -0.005148938 0.014937152 -0.03961132
0.033376317 0.0076196683 0.029986948 -0.017822988 -0.00014177605 0.064867616 -0.0126918815 0.022717992
-0.060070384 0.010424381 0.012205499 -0.020860907 -0.059105914 0.024467684 -0.009773277 0.028562432
-0.057746634 -0.09262972 -0.030089457 -0.09692624 0.028445562 -0.05121023 -0.016274039 -0.086591356
0.03350563 -0.017569698 0.013098865 -0.027586006 0.019148402 -0.007546175 -0.10365965 -0.009850827
-0.04447817 0.018069921 -0.04364512 0.017199503 0.008219646 0.07493505 -0.023314266 0.09855744
0.012660575 0.09932202 -0.02981903 -0.055120654 -0.05059255 -0.039244592 -0.02738065 -0.030448236
-0.028545251 -0.032173254 -0.0025893203 0.0010892694 -0.0072038947 0.008045972 -0.0061207353 0.034844838
-0.009282278 -0.014501233 0.0148902945 0.0064161117 0.038689494 0.0066527654 0.042580772 0.03776074
0.009396744 0.04681628 0.057897046 0.06405785 -0.011209146 -0.08633239 0.0143406745 -0.026786821
0.022329422 -0.0407706 0.010838651 0.006698815 0.036793813 -0.024143297 0.043938085 0.013745384
0.0219524 -0.0008373688 -0.017442796 0.042082805 -0.01798293 0.018823987 -0.016636178 0.04697336
-0.031053778 0.031345606 -0.015934415 0.056848887 -0.05080953 0.056103706 -0.040518675 0.0146737695
-0.10855767 0.044003513 0.05990669 0.0394637 -0.11670634 0.077040225 0.11362497 -0.012001413
-0.16149244 0.08892811 0.03632309 -0.028112719 -0.063191675 -0.035770636 0.102367476 -0.039620873
-0.032580964 -0.012132926 0.124961294 -0.042032223 -0.026759421 0.014816628 0.08015925 0.0032614355
-0.021130422 -0.03814196 0.026485147 -0.054680496 -0.060103733 -0.056472607 0.031246174 -0.038323123
-0.06371881 -0.036653228 0.04331966 0.00999039 -0.1214725 0.02474758 0.07342938 -0.010293141
0.01476084 -0.016199363 0.042019933 0.040873524 -0.008121694 0.045868915 0.060569692 0.09612796
0.027183108 0.09879379 0.047265872 -0.06417652 -0.03734252 -0.044494823 -0.074176304 -0.027716376
0.026030015 -0.01912543 -0.10126616 -0.023906816 0.076036654 0.021270115 0.06855849 0.0022237296
-0.04919339 0.019797124 -0.054815948 0.022613036 0.058759183 0.043818917 0.006298583 0.065746926
00000000: 3f6f 7d3c 3f01 64bd a6e7 ff3c 084a a3bd
00000010: b61c 96bb 2269 f7bc 35c5 5a3d da5b a6bd
00000020: 5630 a33b 6c2f 14bd c3cd bf3c b829 99bc
00000030: b5d7 0dbd a00f 23bd ff12 c13c b95e aabc
00000040: 200d bf3a adc1 e33b f61d 073b f4b5 7c3c
00000050: 73db 03bd b7e0 f73c 748a c2bc a14e 0c3d
00000060: 1208 4fbd 2344 a43d c661 813d b7d2 e3bc
00000070: 7287 253c 6074 233d c74a b03b 59fb 263c
00000080: 3437 5b3d 0013 e13c 1366 8aba 6b69 07bd
00000090: df12 ee3c bddd 0bbd 0ffe d9bc d1de 63bd
000000a0: 43bc 01bd f00f 4d3d f53d 72bd fa63 193d
000000b0: b764 853c 4100 1cbc 5220 b3bc 189a 12bc
000000c0: f06c d5bc c854 65bc 0db6 7ebd 591b 383c
000000d0: 83b3 89bd 8855 a5bc dcfe 25bd 6216 c2bd
000000e0: 9276 79bb e7ae 23bd 24a4 ccbc ec9c 1abd
000000f0: 6448 af3c 4c44 d0bc 64d2 93bb a2d2 c03c
00000100: 0a7f 1d3b e145 183a 2ed7 f8bc 8479 55bd
00000110: 35a3 09bd a536 0ebd e595 84bc 8eae 283d
00000120: 1985 1fbc 0f5c af3d c756 473d a8f2 f43c
00000130: afcf 84bc f778 843d b367 893d 9646 5ebd
00000140: 88b5 a43d 7772 26bc 52da de3b defe 48bd
00000150: e41f 423d 6cb8 a8bb f5ba 743c 7b3f 22bd
00000160: 9bb5 083d 69ae f93b 30a7 f53c 8401 92bc
00000170: b8a9 14b9 50d9 843d 9cf1 4fbc 151b ba3c
00000180: 5d0c 76bd 06cb 2a3c 93f9 473c 7ee4 aabc
00000190: 0b19 72bd 7470 c83c 1820 20bc c3fb e93c
000001a0: bc87 6cbd a7b4 bdbd 2a7e f6bc 4481 c6bd
000001b0: ab06 e93c d1c1 51bd 2251 85bc cf56 b1bd
000001c0: 333d 093d 54ee 8fbc 9f9c 563c 0cfc e1bc
000001d0: 1cdd 9c3c e745 f7bb 834b d4bd 5d65 21bc
000001e0: be2e 36bd 5f07 943c 3ac5 32bd f9e5 8c3c
000001f0: b2ab 063c 8c77 993d 8ffd bebc 7cd8 c93d
00000200: 4d6e 4f3c 5869 cb3d 0a47 f4bc 32c6 61bd
00000210: 223a 4fbd f0be 20bd 634d e0bc 946e f9bc
00000220: bbd7 e9bc 1ac8 03bd 96b1 29bb d1c5 8e3a
00000230: a60e ecbb 41d3 033c 7390 c8bb 76b9 0e3d
00000240: b214 18bc 9496 6dbc 6cf6 733c 3f3e d23b
00000250: e078 1e3d 71ff d93b 2d69 2e3d 01ab 1a3d
00000260: cdf4 193c 6dc2 3f3d 7425 6d3d c330 833d
00000270: 91a6 37bc 09cf b0bd 26f5 6a3c 0970 dbbc
00000280: 31ec b63c 13ff 26bd 9994 313c bc81 db3b
00000290: 1cb5 163d 2ac8 c5bc 6cf8 333d 5234 613c
000002a0: 85d5 b33c de82 5bba 32e4 8ebc 055f 2c3d
000002b0: f050 93bc c334 9a3c 9848 88bc 2367 403d
000002c0: 7e64 febc 4064 003d e488 82bc 61da 683d
000002d0: a71d 50bd 00cd 653d e9f6 25bd 406a 703c
000002e0: 7c53 debd 073d 343d b860 753d b0a4 213d
000002f0: bc03 efbd 44c7 9d3d 35b4 e83d 93a1 44bc
00000300: 465e 25be f11f b63d 85c7 143d a54c e6bc
00000310: a36a 81bd 3b84 12bd 0aa6 d13d 7f49 22bd
00000320: 9e73 05bd 2ec9 46bc b5eb ff3d fb29 2cbd
00000330: 9336 dbbc 71c1 723c 882a a43d cfbd 553b
00000340: b519 adbc be3a 1cbd 61f7 d83c a8f8 5fbd
00000350: 552f 76bd d24f 67bd faf7 ff3c b5f8 1cbd
00000360: 027f 82bd b221 16bd f56f 313d bcae 233c
00000370: 93c6 f8bd 70bb ca3c 2562 963d 90a4 28bc
00000380: 73d7 713c 87b4 84bc 181d 2c3d ff6a 273d
00000390: db10 05bc 0be1 3b3d ed17 783d bcde c43d
000003a0: 1caf de3c 6654 ca3d dc99 413d fb6e 83bd
000003b0: 78f4 18bd 3440 36bd bfe9 97bd 740d e3bc
000003c0: e63c d53c efac 9cbc a264 cfbd 3ad8 c3bc
000003d0: 1bb9 9b3d aa3e ae3c 6568 8c3d febb 113b
000003e0: 027f 49bd 942d a23c b086 60bd f93e b93c
000003f0: 78ad 703d 777b 333d 5864 ce3b 53a6 863d

lstm.weight_hh_l0 f4 [512, 128]
-0.0048831278 -0.0052585984 0.04631575 -0.0027984118 -0.010482699 0.01818539 0.0076938802 -0.0008567601
0.029125975 0.005769726 0.017334392 -0.02370265 0.024020407 0.02009825 -0.0033416578 -0.0070549557
-0.016378509 -0.011655611 -0.01886031 0.01467533 0.021976028 0.017397076 0.03160956 -0.00118465
-0.011611595 0.017487235 0.020209951 -0.048699483 0.00083490513 0.0054553244 -0.0117811095 -0.008446357
-0.0016807865 0.012072309 0.0094649885 0.006268561 0.017560821 0.028204815 0.0012883014 -0.038216017
-0.011535932 0.01729421 0.006873085 -0.0168074 0.005045487 0.031104812 0.028254865 -0.04190977
0.04353822 0.014852147 0.009131332 -0.03307375 -0.01128397 -0.031220289 -0.026169732 -0.006513591
0.0058211284 0.008580592 -0.007812681 0.015769823 -0.005848471 -0.030942013 0.0038868655 0.035483215
0.004795194 0.03450067 0.006199869 0.028486138 -0.021547697 0.008452688 0.0328307 -0.017111767
0.01291626 -0.039806508 0.023464842 0.0011305425 -0.0193015 0.017283132 -0.012980969 -0.03738062
0.011141619 0.017043771 -0.009597742 -0.03952632 -0.017420113 0.017673135 0.0093250545 0.0049079503
0.026146753 0.036264926 0.049008157 0.010125481 -0.026539765 -0.013946376 0.012797877 0.010392547
0.013673882 0.018880764 -0.011840168 0.01561296 -0.029381769 0.007976514 0.0003932983 -0.00045380628
0.011421111 -0.00097607303 0.010001393 -0.00095954805 0.023096142 0.0039386647 0.009064812 0.011150688
-0.016550228 0.043854624 -0.026974732 0.009041373 -0.035772882 -0.014949064 0.0069338838 -0.017036758
-0.024362054 -0.034701146 0.03152326 -0.024851507 -0.023960399 0.028506499 -0.010703127 -0.033660006
-0.004097752 -0.0059194737 -0.002845064 -0.00077142287 -0.019914646 0.011761935 0.001702239 0.0096969595
-0.015518289 -0.004314811 0.0011659536 -0.0069662225 0.0074478337 0.011386882 0.0104487175 -0.014887828
-0.014968071 0.0027742626 -0.018974341 0.022630705 0.0062803077 0.019002855 0.0118243 0.013747764
0.0047290944 0.0040543983 0.008378651 0.0055825072 -0.005139649 0.0004995939 -0.01702605 -0.015521573
0.0083778575 -0.019698767 0.013929105 0.0030119233 0.016523672 0.020675963 0.002344795 -0.0374034
-0.0031925745 -0.00158537 -0.02355994 -0.014355607 0.017845357 -0.0068700775 0.016425207 -0.027976332
0.001324209 0.012604282 0.010811305 -0.016153041 -0.015685642 -0.007909871 -0.029456677 0.0006714766
-0.01823004 0.0114727225 -0.0133027 -0.0015372399 -0.0051688533 -0.0064467806 -0.018908614 0.0044258884
-0.0018605449 0.011275359 0.0071723973 0.015413736 -0.025280321 0.0046119923 0.022051511 -0.023299163
0.006812714 -0.0050729606 0.007292844 0.013608733 0.002484396 0.0074443067 -0.011434424 -0.02521626
0.013572208 0.0128373075 -0.0028241482 -0.0031524857 -0.0014980416 -0.002982555 -0.0062138224 -0.002570316
0.024849476 0.027824376 0.0265714 -0.00963764 -0.021150827 -0.011273885 0.00792153 -0.0048517357
-0.0066094655 0.016113605 -0.010117933 0.014540476 -0.02514657 -0.013601985 0.016236067 0.01625809
-0.00646504 0.017396936 -0.0022033504 -0.0033595301 0.0023902825 -0.008659053 0.026155362 0.014778475
-0.013249094 0.020736063 -0.0056734537 -0.012659035 -0.0201673 -0.012442059 0.0037002861 -0.010801011
-0.013079605 0.010072756 0.025464682 -0.0027303707 -0.024879675 -0.008739266 -0.015824188 -0.007752974
00000000: a502 a0bb 5250 acbb 95b5 3d3d 8f65 37bb
00000010: a0bf 2bbc 87f9 943c f21c fc3b 3298 60ba
00000020: 9999 ee3c f80f bd3b db00 8e3c 0f2c c2bc
00000030: 72c6 c43c 16a5 a43c b7ff 5abb 422d e7bb
00000040: 392c 86bc 2df7 3ebc f080 9abc cc70 703c
00000050: 1207 b43c 5084 8e3c 0779 013d 4246 9bba
00000060: 8f3e 3ebc 6441 8f3c 578f a53c 1c79 47bd
00000070: 89dd 5a3a 94c2 b23b 8e05 41bc 9762 0abc
00000080: d64d dcba efca 453c 0a13 1b3c 8068 cd3b
00000090: b6db 8f3c c90d e73c 39dc a83a 6688 1cbd
000000a0: 3501 3dbc 96ac 8d3c 9e37 e13b acaf 89bc
000000b0: 9d54 a53b 85cf fe3c bf76 e73c 94a9 2bbd
000000c0: 2255 323d 6b56 733c 959b 153c 5778 07bd
000000d0: 67e0 38bc b1c1 ffbc e861 d6bc f66f d5bb
000000e0: 2abf be3b 9d95 0c3c c200 00bc b72f 813c
000000f0: 88a4 bfbb 1b7a fdbc c8ba 7e3b d956 113d
00000100: 0121 9d3b 9350 0d3d 4528 cb3b c35b e93c
00000110: cc84 b0bc 257d 0a3c 7c79 063d fa2d 8cbc
00000120: b99e 533c 260c 23bd 5739 c03c b62e 943a
00000130: 2e1e 9ebc 5b95 8d3c 21ae 54bc 6c1c 19bd
00000140: 568b 363c 619f 8b3c d93f 1dbc 5ae6 21bd
00000150: a0b4 8ebc 40c7 903c 1dc8 183c dfd2 a03b
00000160: b731 d63c 888a 143d c7bc 483d 58e5 253c
00000170: ec69 d9bc 577f 64bc 30ae 513c 8045 2a3c
00000180: 6b08 603c d5ab 9a3c 44fd 41bc 80cd 7f3c
00000190: 09b2 f0bc edaf 023c 9b33 ce39 d9ec edb9
000001a0: 9d1f 3b3c 27df 7fba e2dc 233c 2e8a 7bba
000001b0: 1f34 bd3c ea0f 813b 9484 143c 60b1 363c
000001c0: 5894 87bc e8a0 333d 1dfa dcbc 4422 143c
000001d0: 9686 12bd ebec 74bc a235 e33b ac90 8bbc
000001e0: ee92 c7bc ca22 0ebd 891e 013d 6395 cbbc
000001f0: 9948 c4bc 7686 e93c 2b5c 2fbc 13df 09bd
00000200: 6f46 86bb 25f8 c1bb 4174 3abb 5039 4aba
00000210: 0a24 a3bc 22b5 403c aa1d df3a ffdf 1e3c
00000220: 6c40 7ebc 4263 8dbb e9d2 983a e944 e4bb
00000230: f50c f43b 0b90 3a3c 1931 2b3c 14ec 73bc
00000240: a43c 75bc 67d0 353b 1470 9bbc 0764 b93c
00000250: 0acb cd3b e0ab 9b3c b5ba 413c 4d3e 613c
00000260: 85f6 9a3b c2da 843b 9c46 093c 77ed b63b
00000270: 806a a8bb 2ef7 023a 377a 8bbc 324e 7ebc
00000280: 4843 093c 4f5f a1bc e736 643c b063 453b
00000290: a75c 873c a360 a93c 22ab 193b 4f34 19bd
000002a0: 833a 51bb 31cc cfba c600 c1bc c833 6bbc
000002b0: 6d30 923c 631e e1bb 288e 863c 9f2e e5bc
000002c0: 1591 ad3a 3182 4e3c e621 313c 6253 84bc
000002d0: 2d7f 80bc 6798 01bc 214f f1bc 0806 303a
000002e0: 2a57 95bc 16f8 3b3c 91f3 59bc 367d c9ba
000002f0: 7c5f a9bb 843f d3bb 3de6 9abc 0b07 913b
00000300: 87dd f3ba 49bc 383c 6e06 eb3b e589 7c3c
00000310: ad18 cfbc 3220 973b 5fa5 b43c e3dd bebc
00000320: 303d df3b 143b a6bb cff8 ee3b 2af7 5e3c
00000330: 40d1 223b 5fef f33b 7357 3bbc 5592 cebc
00000340: f75d 5e3c 9253 523c 5815 39bb ef99 4ebb
00000350: ef59 c4ba f876 43bb 529d cbbb bf72 28bb
00000360: 2191 cb3c f2ef e33c 44ac d93c 31e7 1dbc
00000370: 8044 adbc 1ab6 38bc 4ec9 013c 4ffb 9ebb
00000380: 3794 d8bb ae00 843c b0c5 25bc 2d3b 6e3c
00000390: 2e00 cebc dcda 5ebc 8001 853c b02f 853c
000003a0: b0d8 d3bb 0584 8e3c 1666 10bb 902b 5cbb
000003b0: 49a6 1c3b b3de 0dbc c543 d63c 6b21 723c
000003c0: ba12 59bc adde a93c 61e8 b9bb d767 4fbc
000003d0: e535 a5bc c7d9 4bbc 8080 723b b9f6 30bc
000003e0: d74b 56bc 3308 253c 4f9b d03c 05f0 32bb
000003f0: 76d0 cbbc 232f 0fbc baa1 81bc a90c febb

lstm.bias_ih_l0 f4 [512]
0.077044174 0.08390819 0.06531178 0.09573347 0.07537982 0.039118454 0.097330466 0.10287853
0.0993108 0.07148776 0.0702423 0.03997898 0.10310154 0.08457408 0.04004875 0.08707917
0.071661115 0.021414176 0.07181519 0.059282564 -0.0038389794 0.08463563 0.10315767 0.086163014
0.068286724 0.0692811 0.08052188 0.0763785 0.09513726 0.07991552 0.066998586 0.06183565
0.0640408 0.07051997 0.0629497 0.072017685 0.048075482 -0.006227529 0.08497598 0.0924373
0.071282744 0.09209561 0.046546716 0.07459321 0.071506895 0.07870033 0.056573477 0.088674806
0.041596856 0.079479486 0.051753722 -0.0026973432 0.06548647 -0.0052686725 0.08795787 0.060209952
0.016931294 0.015915351 0.05202923 0.052230757 0.08162692 0.07076492 0.08417687 0.052869655
0.04975541 0.014057986 0.04122304 0.024457501 0.10182082 0.11016692 0.051342554 0.107463315
0.084909014 0.06342767 0.014287904 0.031047601 0.056238838 -0.0020942374 0.05433291 0.110763274
0.080348976 0.08724771 0.06154343 0.057091005 0.057493784 0.09032254 0.04900248 0.061705183
0.12064385 0.101148546 0.11927701 0.074806064 0.092270575 0.058013905 0.05162541 0.08589847
0.066989824 0.037339374 0.055373516 0.10032086 0.034233384 0.035896324 0.0635831 0.07714219
0.09140449 0.059190366 0.03548195 0.034839053 0.029520463 0.05225602 0.03727461 0.08463516
0.065279976 0.060339686 0.12092053 0.050465368 0.048229642 0.047611304 0.09667808 0.08561006
0.025625736 0.05447953 0.0362826 -0.0026603905 0.06439494 0.033149086 0.036537856 0.016242437
0.06781744 0.06758095 0.06527533 0.09778626 0.07236664 0.015083085 0.07170634 0.09033584
0.03137504 0.08289441 0.11329486 0.093018524 0.026752882 0.06633931 0.0266285 0.03297418
0.074623376 0.06847701 0.10001246 0.11442731 0.0732883 0.09103262 0.031914 0.08520213
0.069994844 0.029221253 0.09368365 0.10141384 0.039792594 0.07921211 0.03195315 0.05964413
0.120481975 0.0034349065 0.058900878 0.08021895 0.04347875 0.01091552 0.05772786 0.1598424
0.06431743 0.061127797 0.058877014 0.068066135 0.046700124 0.03185628 0.054544788 0.08200044
0.0361731 0.09361268 0.038498327 0.036323957 0.05996875 -0.005686499 0.013583484 0.058566485
0.03959253 0.08293592 0.054424424 0.030308044 0.082692616 0.078399196 0.10811236 0.015124176
0.06535817 0.05980497 0.03013908 0.07405189 0.101699494 0.116412655 0.04473607 0.055815313
0.11191635 0.037088457 0.06650471 0.028298363 0.067313686 -0.021888243 0.06749354 0.14471166
0.030371258 0.06732035 0.04473208 0.01099072 0.06877916 0.06784383 0.06337743 0.06053432
0.07574587 0.06890685 0.17155464 0.09050547 0.1293773 0.033826467 0.045023736 0.058940373
0.09719875 0.01994531 0.07440042 0.092191525 0.09423217 0.08553881 0.048817106 0.09584961
0.10590715 0.102843195 0.04056258 0.0584178 0.015326993 0.008910886 0.087473355 0.043459024
0.06084595 0.10592346 0.11656967 0.07617765 0.08043579 0.032690395 0.059899326 0.11300644
0.0632087 0.11324601 0.08674382 0.03997951 0.092040725 0.046898816 0.017550992 0.052060187
00000000: 56c9 9d3d 0fd8 ab3d 2fc2 853d e90f c43d
00000010: bc60 9a3d ac3a 203d 3255 c73d fbb1 d23d
00000020: 7663 cb3d 2d68 923d 32db 8f3d 00c1 233d
00000030: e626 d33d 2d35 ad3d 280a 243d 9056 b23d
00000040: 10c3 923d c86c af3c d813 933d 46d2 723d
00000050: 6397 7bbb 7255 ad3d 5444 d33d 3c76 b03d
00000060: e9d9 8b3d 40e3 8d3d a8e8 a43d 556c 9c3d
00000070: 53d7 c23d c0aa a33d 8e36 893d 6147 7d3d
00000080: d327 833d c66c 903d c6eb 803d 027e 933d
00000090: ccea 443d 4d10 ccbb e307 ae3d c44f bd3d
000000a0: b0fc 913d a09c bc3d c5a7 3e3d 53c4 983d
000000b0: 3572 923d a32d a13d 97b9 673d 239b b53d
000000c0: 7761 2a3d 24c6 a23d b6fb 533d e9c5 30bb
000000d0: c51d 863d d4a4 acbb 4123 b43d b69e 763d
000000e0: 7fb3 8a3c e960 823c 9a1c 553d ebef 553d
000000f0: 042c a73d 33ed 903d ec64 ac3d da8d 583d
00000100: 54cc 4b3d 7853 663c 7ed9 283d 195b c83c
00000110: 6f87 d03d 329f e13d 924c 523d ba15 dc3d
00000120: c7e4 ad3d 5ee6 813d d017 6a3c 8a57 fe3c
00000130: b25a 663d 793f 09bb 2f8c 5e3d dbd7 e23d
00000140: 018e a43d edae b23d f714 7c3d 42d8 693d
00000150: 9a7e 6b3d 06fb b83d d3b6 483d 93be 7c3d
00000160: 1f14 f73d f826 cf3d 8147 f43d ec33 993d
00000170: 5bf8 bc3d fd9f 6d3d 2a75 533d 89eb af3d
00000180: f631 893d 2cf1 183d 57cf 623d 0675 cd3d
00000190: 4e38 0c3d 0608 133d db37 823d b9fc 9d3d
000001a0: 4732 bb3d 9971 723d 8555 113d 65b3 0e3d
000001b0: e6d4 f13c 690a 563d 43ad 183d 3355 ad3d
000001c0: 82b1 853d bf26 773d 2fa5 f73d c6b4 4e3d
000001d0: 728c 453d 1204 433d 28ff c53d 5454 af3d
000001e0: 10ed d13c ed25 5f3d 109d 143d f259 2ebb
000001f0: 7fe1 833d 56c7 073d b8a8 153d dc0e 853c
00000200: dfe3 8a3d e267 8a3d 12af 853d 2a44 c83d
00000210: f634 943d 0b1f 773c c6da 923d ff01 b93d
00000220: 1d83 003d 8bc4 a93d 2307 e83d 7f80 be3d
00000230: dc28 db3c e7dc 873d 0324 da3c ef0f 073d
00000240: 24d4 983d ad3d 8c3d 55d3 cc3d de58 ea3d
00000250: 2d18 963d 4f6f ba3d 41b8 023d 747e ae3d
00000260: 7559 8f3d 6961 ef3c 37dd bf3d 0fb2 cf3d
00000270: 8ffd 223d f539 a23d 4ee1 023d 674d 743d
00000280: 41bf f63d 2b1c 613b 0c42 713d d549 a43d
00000290: c616 323d 02d7 323c 0c74 6c3d baad 233e
000002a0: dbb8 833d 2461 7a3d 0629 713d 4266 8b3d
000002b0: a148 3f3d bb7b 023d 5b6a 5f3d d9ef a73d
000002c0: 3f2a 143d 01b8 bf3d 6cb0 1d3d 6ec8 143d
000002d0: cba1 753d d055 babb 438d 5e3c 69e3 6f3d
000002e0: c72b 223d 4fda a93d 25ec 5e3d 9348 f83c
000002f0: bf5a a93d c28f a03d 036a dd3d 64cb 773c
00000300: 81da 853d 0ef6 743d 3be6 f63c 84a8 973d
00000310: d347 d03d c269 ee3d 2b3d 373d 999e 643d
00000320: 6634 e53d 11ea 173d 9f33 883d f8d1 e73c
00000330: c2db 893d f94e b3bc 0e3a 8a3d 4b2f 143e
00000340: 25cd f83c 40df 893d fc38 373d 6c12 343c
00000350: 17dc 8c3d b5f1 8a3d 07cc 813d d6f2 773d
00000360: a720 9b3d 091f 8d3d 05ac 2f3e ef5a b93d
00000370: 7c7b 043e 9f8d 0a3d cf6a 383d 766b 713d
00000380: 2310 c73d 5964 a33c 3f5f 983d e9ce bc3d
00000390: ccfc c03d f92e af3d 72f4 473d cd4c c43d
000003a0: d9e5 d83d 749f d23d f324 263d 8147 6f3d
000003b0: 111e 7b3c f7fe 113c 3b25 b33d 1702 323d
000003c0: 9a39 793d 66ee d83d 14bc ee3d 0703 9c3d
000003d0: 85bb a43d 5de6 053d ff58 753d ec6f e73d
000003e0: 9073 813d 86ed e73d bea6 b13d 8ec1 233d
000003f0: d97f bc3d f918 403d 19c7 8f3c 103d 553d

lstm.bias_hh_l0 f4 [512]
0.0675493 0.03763195 0.0027244275 0.03101168 0.07515997 0.0043567237 0.09587384 0.1259198
0.060115863 0.06523136 0.07522917 0.041500006 0.08613428 0.07487223 0.08965758 0.1171785
0.056431223 0.019346997 0.086313225 0.084954806 0.062065393 0.05978496 0.070544764 0.088984385
0.05104854 0.042742282 0.079455145 0.07373238 0.047165416 0.09482999 0.06867429 0.11104984
0.07259144 0.08226878 0.05855329 0.08471792 0.03250627 0.010371709 0.07413119 0.06892911
0.109570585 0.09846007 0.02398359 0.060269713 0.035446133 0.06468276 0.09396875 0.05720961
0.049769145 0.07875007 0.047290627 0.006531461 0.03841318 0.0074858726 0.074382156 0.10175065
0.07915839 0.009524643 0.06871777 0.07510781 0.055137437 0.058710586 0.09309945 0.0049900315
0.08944689 0.019241761 0.073825695 0.058736134 0.08283008 0.10794956 0.068035826 0.10320408
0.09694486 0.05820533 0.06695161 0.055613104 0.08622096 0.056711074 0.059248947 0.09085805
0.076367125 0.087107 0.065623984 0.06274819 0.032362286 0.06701116 0.08156021 0.054504834
0.04537867 0.08621513 0.11537743 0.086247556 0.07966214 0.058812957 0.05935188 0.053996682
0.06284127 0.019065851 0.06047007 0.06560805 0.071347184 -0.008346555 0.06790205 0.0668161
0.10387274 0.048678923 0.04202278 0.049258612 0.046916407 0.057275135 0.03198648 0.055576835
0.0445044 0.10228922 0.15142645 0.021220867 0.0705178 0.052235443 0.041347623 0.12798323
0.08409523 0.10153738 0.00028798258 0.00021094273 0.07609364 0.07193272 0.057968516 0.04582775
0.062303428 0.061334938 0.07739412 0.031284712 0.081248544 0.04253913 0.12016432 0.059102934
0.10582776 0.013490526 0.08911838 0.063837714 0.07328154 0.042925477 0.0054762177 0.06730856
0.0072884522 0.062346246 0.09745212 0.106638916 0.033066865 0.054054745 0.113561034 0.048068944
0.05850206 0.058094457 0.09839364 0.06592876 0.012115922 0.10660819 0.047742672 0.051304083
0.11570435 0.09133974 0.030656712 0.087404765 0.004898225 0.056503695 0.0034097517 0.13199796
0.102730215 0.06009876 0.05331272 0.077664696 0.04650823 0.067106105 0.048451066 0.12596643
0.07699513 0.0463845 0.07133159 0.009676371 0.047592174 0.07148843 0.012289865 0.05546831
0.055213787 0.017377568 0.087606914 0.08405407 0.057759076 0.113018826 0.092852026 0.05777112
0.003328919 0.00597085 0.04891452 0.0871067 0.090960436 0.041318625 0.0912973 0.10109461
0.08798722 0.038160723 -0.012737017 0.025983786 0.11026113 -0.004897386 0.034193587 0.11821202
0.088259876 0.032341696 0.045698263 0.0131413 0.022504829 0.08387137 0.04555379 0.08030776
0.08678536 0.057608157 0.15828244 0.06564775 0.09139417 0.079565786 0.07125411 0.05848476
0.088113375 0.04659331 0.085105665 0.12507866 0.085339256 0.09728746 0.08650881 0.08160625
0.04460278 0.06030839 0.034133922 0.070583805 0.0065801265 0.09046521 0.06873775 0.09004423
0.042864636 0.039730955 0.13208494 0.06901546 0.11182936 0.036311932 0.042487077 0.07988813
0.045337573 0.07438515 0.08061382 0.014257456 0.10556778 0.08634238 0.04348768 0.03696931
00000000: 4a57 8a3d f623 1a3d 4f8c 323b 350c fe3c
00000010: 78ed 993d d9c2 8e3b 8159 c43d 1ff1 003e
00000020: 0d3c 763d 0598 853d c011 9a3d e9fb 293d
00000030: 2b67 b03d 9d56 993d 659e b73d 48fb ef3d
00000040: 6d24 673d 987d 9e3c fdc4 b03d c9fc ad3d
00000050: 4838 7e3d 13e1 743d c679 903d 723d b63d
00000060: 4618 513d 8812 2f3d 61b9 a23d 0101 973d
00000070: 8630 413d 3a36 c23d 1ba5 8c3d 196e e33d
00000080: d2aa 943d 897c a83d 93d5 6f3d 9780 ad3d
00000090: 4b25 053d 1aee 293c 18d2 973d b52a 8d3d
000000a0: 8b66 e03d 6fa5 c93d 3c79 c43c 60dd 763d
000000b0: f72f 113d 6578 843d b072 c03d a054 6a3d
000000c0: bbda 4b3d b747 a13d d1b3 413d de05 d63b
000000d0: 2357 1d3d 0d4c f53b ac55 983d a562 d03d
000000e0: cb1d a23d 400d 1c3c e7bb 8c3d 20d2 993d
000000f0: cbd7 613d 837a 703d edaa be3d 6b83 a33b
00000100: ee2f b73d e6a0 9d3c ed31 973d 4d95 703d
00000110: d1a2 a93d a914 dd3d 5e56 8b3d a95c d33d
00000120: 078b c63d b668 6e3d ed1d 893d 91ca 633d
00000130: 9d94 b03d df49 683d 06af 723d c913 ba3d
00000140: 5e66 9c3d 2865 b23d de65 863d 1f82 803d
00000150: 518e 043d 263d 893d 0a09 a73d 7640 5f3d
00000160: fcde 393d 8f91 b03d 014b ec3d 8fa2 b03d
00000170: e725 a33d dbe5 703d f51a 733d a02b 5d3d
00000180: ecb2 803d fd2f 9c3c 77af 773d 835d 863d
00000190: 791e 923d fdbf 08bc 3b10 8b3d e1d6 883d
000001a0: 3bbb d43d 8d63 473d 1420 2c3d 66c3 493d
000001b0: 6b2b 403d 5599 6a3d 4104 033d 89a4 633d
000001c0: 3f4a 363d 037d d13d 890f 1b3e 62d7 ad3c
000001d0: a36b 903d d5f4 553d 205c 293d 090e 033e
000001e0: 1f3a ac3d d4f2 cf3d 5efc 9639 8230 5d39
000001f0: fbd6 9b3d 7651 933d 6570 6d3d e1b5 3b3d
00000200: e131 7f3d 583a 7b3d cf80 9e3d 6624 003d
00000210: a365 a63d 833d 2e3d b618 f63d eb15 723d
00000220: 3abc d83d 5e07 5d3c b283 b63d 59bd 823d
00000230: a214 963d a0d2 2f3d d871 b33b 12d9 893d
00000240: f8d3 ee3b c75e 7f3d fa94 c73d 8165 da3d
00000250: 1f71 073d 8268 5d3d b092 e83d f1e3 443d
00000260: db9f 6f3d 74f4 6d3d 9b82 c93d a805 873d
00000270: dc81 463c 6555 da3d d28d 433d 3b24 523d
00000280: 67f6 ec3d 5410 bb3d c923 fb3c 4501 b33d
00000290: 4a81 a03b 6b70 673d 2476 5f3b 792a 073e
000002a0: 3864 d23d 1e2a 763d 705e 5a3d ab0e 9f3d
000002b0: 6a7f 3e3d ed6e 893d a074 463d 58fd 003e
000002c0: 9faf 9d3d acfd 3d3d 4c16 923d a489 1e3c
000002d0: 03f0 423d 8768 923d 6e5b 493c bd32 633d
000002e0: da27 623d 675b 8e3c 416b b33d 8a24 ac3d
000002f0: c894 6c3d 6a76 e73d 3429 be3d 69a1 6c3d
00000300: fe29 5a3b 1fa7 c33b 975a 483d ff64 b23d
00000310: 7749 ba3d b83d 293d 14fa ba3d b10a cf3d
00000320: a532 b43d 6b4e 1c3d ecae 50bc f3db d43c
00000330: 96d0 e13d 407a a0bb 930e 0c3d 2519 f23d
00000340: 98c1 b43d ba78 043d 1a2e 3b3d 9b4e 573c
00000350: 0c5c b83c c1c4 ab3d 9c96 3a3d 6578 a43d
00000360: 86bc b13d 88f6 6b3d cb14 223e 5472 863d
00000370: de2c bb3d 63f3 a23d aded 913d b78d 6f3d
00000380: c974 b43d a0d8 3e3d e14b ae3d 9f14 003e
00000390: 59c6 ae3d a63e c73d 882b b13d 2d21 a73d
000003a0: 68b1 363d ee05 773d 03d0 0b3d 3e8e 903d
000003b0: 1a9e d73b d345 b93d 61c6 8c3d 1c69 b83d
000003c0: d492 2f3d edbc 223d 4641 073e fa57 8d3d
000003d0: cb06 e53d d2bb 143d ee06 2e3d 639c a33d
000003e0: e4b3 393d 3e57 983d dc18 a53d 1b98 693c
000003f0: ec33 d83d 46d4 b03d 2320 323d 226d 173d

lstm.weight_ih_l1 f4 [512, 128]
-0.014789067 0.008042287 0.021352392 -0.00082001806 -0.007456472 0.0023173518 0.0021497163 -0.00077713194
0.013556595 -0.0069101653 0.022428727 -0.0134596955 0.0020997857 0.023604646 -0.0010614401 0.0051447437
-0.0034697375 0.0056141256 0.0010470031 0.0071011633 0.0051877256 0.0053965067 0.011024909 -0.006377106
0.012688087 0.01527554 -0.018204182 -0.026182415 -0.012023984 0.013036207 0.0077642156 -0.0057228007
-0.009312756 0.0012340981 -0.0019333992 0.010577021 -0.002981324 0.0015468525 0.011334443 -0.01656039
0.005673946 0.013481616 -0.009776483 0.0011860396 -0.002817286 0.010597617 0.021955933 -0.019186737
0.018872015 -0.016799383 0.0031051382 -0.021493522 0.0024893952 -0.008931703 -0.01876137 0.011446943
0.01201329 -0.0042767352 -0.014523667 0.012015182 -0.013039776 -0.025308304 -0.006954762 0.018791307
-0.011565583 0.023057496 0.008516517 0.018998599 -0.021524398 0.006792323 0.029447984 -0.011161187
0.011997077 -0.024984054 0.0011145443 0.0016894141 -0.0042309905 0.010431952 -0.013548113 -0.01826216
-0.008484128 -0.002053394 -0.008068365 -0.01570018 0.001526954 -0.006053617 0.012926042 -0.015122433
0.0103293285 0.026697783 0.039314043 0.004414503 -0.022840315 0.010983541 0.014468143 0.00034615918
0.003945613 -0.004102266 -0.0049264035 0.009037253 -0.023204044 -0.0016698667 -0.00075577747 0.0011714661
-0.0035945445 -0.00066772936 -0.005794823 -0.002701165 0.01280366 -0.005759456 -0.0029747216 0.009564933
-0.005864579 0.0037128963 -0.006747698 -0.002010625 -0.01654715 -0.012468504 0.02002694 -0.010043776
-0.013036175 -0.020036103 0.002949544 -0.003163755 -0.0117569165 -0.0058112848 0.0060518156 -0.024786605
-0.015533791 0.003394008 0.01825766 -0.011360486 -0.009097141 -0.003967819 -0.0137814265 0.0037129459
0.017668061 -0.014350274 0.035805523 -0.009834721 0.013216641 0.01888063 0.001167044 -0.010047824
0.0049877726 0.0011986495 -0.0023702055 0.0034863271 0.016629811 0.0165775 0.01195897 -0.009606735
0.00082726596 0.01987468 -0.0029867128 -0.013702976 -0.012436061 0.017337205 0.0059653237 -0.0042377943
-0.012138914 -0.007826539 0.014546554 0.00094461336 -0.0003373383 0.0019591223 0.016163731 -0.02093641
-0.0013577718 0.020292243 -0.0006783973 0.0015562794 0.007163271 0.004973142 0.01609278 -0.019217126
0.02059413 0.007498891 0.00426442 -0.015456201 0.0068915887 -0.007900479 -0.009917714 0.0009601167
0.008698789 0.013865062 0.0034477934 0.019868648 -0.012951158 -0.022942793 -0.0015889255 0.028020876
-0.004579792 0.019157209 0.019116992 0.012016138 -0.014137867 0.0061932392 0.01937726 -0.016658401
0.0033437654 -0.025976455 0.008785228 0.019625338 -0.003992355 0.009382622 -0.015059884 -0.04239803
-0.00087650603 -0.0103229815 0.0112590995 -0.011092532 -0.005268813 0.0031854287 0.018189358 0.0034958033
0.014489404 0.020045752 0.022977361 0.029462904 -0.01698877 0.0064584785 0.016201135 -0.010774568
0.00938472 0.0038228633 -0.010552347 0.0056989915 -0.023768604 0.007025276 -0.0042402805 0.0129656
0.004774881 -0.010526758 -0.017175106 -0.0029753346 0.0045727314 0.0044531142 0.011100758 0.012963673
-0.013308098 -0.0012299416 -0.0025198094 0.011261822 0.0061040446 0.0030695163 0.012782229 0.0021648405
-0.0152694555 -0.023280464 0.010543716 -0.003117264 -0.021516629 0.0039396933 -0.00057086546 -0.0123440605
00000000: d84d 72bc ccc3 033c 36eb ae3c 7bf6 56ba
00000010: 6c55 f4bb b6de 173b 41e2 0c3b 71b8 4bba
00000020: 7b1c 5e3c ab6e e2bb 73bc b73c 0e86 5cbc
00000030: 8f9c 093b 885e c13c 0520 8bba 3d95 a83b
00000040: 8964 63bb b3f6 b73b 983b 893a e0b0 e83b
00000050: ccfd a93b 2ed5 b03b d2a1 343c 0bf7 d0bb
00000060: b2e1 4f3c 4246 7a3c f020 95bc 817c d6bc
00000070: 3f00 45bc d195 553c f66a fe3b 5586 bbbb
00000080: 8894 18bc 76c1 a13a 1d6a fdba 3e4b 2d3c
00000090: 5162 43bb c2bf ca3a 1ab4 393c a8a9 87bc
000000a0: 82ec b93b ffe1 5c3c 8b2d 20bc e374 9b3a
000000b0: 37a2 38bb a1a1 2d3c eedc b33c 812d 9dbc
000000c0: 7c99 9a3c dc9e 89bc 937f 4b3b 2f13 b0bc
000000d0: 1f25 233b 4756 12bc 72b1 99bc f58b 3b3c
000000e0: 64d3 443c db23 8cbb adf4 6dbc 53db 443c
000000f0: c9a4 55bc 5c53 cfbc c6e4 e3bb 3af0 993c
00000100: 927d 3dbc 13e3 bc3c dc88 0b3c f3a2 9b3c
00000110: ef53 b0bc 2392 de3b e63c f13c 69dd 36bc
00000120: 638f 443c 5cab ccbc e715 923a 556f dd3a
00000130: 1fa4 8abb c7ea 2a3c e8f8 5dbc 869a 95bc
00000140: 0301 0bbc 3c92 06bb 2d31 04bc aa9d 80bc
00000150: 1324 c83a 6c5d c6bb c0c7 533c 15c4 77bc
00000160: 583c 293c 4fb5 da3c c307 213d 89a7 903b
00000170: 9d1b bbbc 4ff4 333c ca0b 6d3c b37c b539
00000180: 334a 813b 4d6c 86bb ab6d a1bb fd10 143c
00000190: 6816 bebc 6edf daba 5e1f 46ba e18b 993a
000001a0: 7392 6bbb 8f0a 2fba 80e2 bdbb 0706 31bb
000001b0: 71c6 513c d2b9 bcbb 8cf3 42bb 3db6 1c3c
000001c0: a82b c0bb 1054 733b cb1b ddbb b1c4 03bb
000001d0: e48d 87bc b248 4cbc 8a0f a43c a68e 24bc
000001e0: ae95 55bc c122 a4bc 234d 413b 0057 4fbb
000001f0: 15a0 40bc 976c bebb 4f4e c63b 470d cbbc
00000200: 7181 7ebc 016e 5e3b 1791 953c 5521 3abc
00000210: 2d0c 15bc 7a04 82bb 7ecb 61bc e554 733b
00000220: 9cbc 903c 691d 6bbc d0a8 123d cf21 21bc
00000230: 9c8a 583c 8dab 9a3c 80f7 983a a19f 24bc
00000240: 7870 a33b 011c 9d3a 7355 1bbb dd7a 643b
00000250: 3e3b 883c 8acd 873c 8eef 433c 9165 1dbc
00000260: e1dc 583a 3ad0 a23c babc 43bb 7282 60bc
00000270: 9fc0 4bbc c106 8e3c c378 c33b 32dd 8abb
00000280: 4ce2 46bc e23a 00bc ab54 6e3c ee9f 773a
00000290: c8dc b0b9 9e64 003b cd69 843c d682 abbc
000002a0: 43f7 b1ba eb3b a63c 79d6 31ba 12fc cb3a
000002b0: dfb9 ea3b bdf5 a23b 01d5 833c 3c6d 9dbc
000002c0: 05b5 a83c 42b9 f53b 8cbc 8b3b 013c 7dbc
000002d0: d6d2 e13b 0371 01bc e87d 22bc 57b0 7b3a
000002e0: 5e85 0e3c 492a 633c 60f4 613b 93c3 a23c
000002f0: 1831 54bc 86f2 bbbc 7e43 d0ba 098c e53c
00000300: 1412 96bb 94ef 9c3c 3d9b 9c3c 56df 443c
00000310: 83a2 67bc a8f0 ca3b 0fbd 9e3c 3377 88bc
00000320: 1323 5b3b 93cc d4bc ebef 0f3c 51c5 a03c
00000330: 4dd2 82bb 92b9 193c bbbd 76bc 8fa9 2dbd
00000340: 53c5 65ba b921 29bc 1678 383c 74bd 35bc
00000350: 02a6 acbb a0c2 503b d901 953c d919 653b
00000360: f764 6d3c fd36 a43c 053b bc3c 305c f13c
00000370: 082c 8bbc a5a1 d33b 3eb8 843c d087 30bc
00000380: 5ec2 193c 0189 7a3b c0e3 2cbc 9bbe ba3b
00000390: 60b6 c2bc 4934 e63b 0df2 8abb ab6d 543c
000003a0: 9b76 9c3b 6c78 2cbc cfb2 8cbc d5fd 42bb
000003b0: dad6 953b 6eeb 913b f4df 353c 9665 543c
000003c0: 350a 5abc fe35 a1ba 6323 25bb 8183 383c
000003d0: 7004 c83b f029 493b 8e6c 513c ffdf 0d3b
000003e0: bd2c 7abc acb6 bebc 8dbf 2c3c 034b 4cbb
000003f0: a443 b0bc 8b18 813b 22a6 15ba be3e 4abc

lstm.weight_hh_l1 f4 [512, 128]
0.0227365 -0.019949697 0.00647069 -0.01919827 0.015022442 0.0120709045 0.019795319 -0.021120217
-0.0142132295 -0.03357061 0.026034646 -0.012814628 0.023573155 -0.0045617595 -0.0077797533 -0.013614018
-0.016610447 0.011409503 0.013361897 -0.00027674978 0.013210868 0.006762835 -0.014414665 0.0016228969
0.019095764 0.010249435 0.00058873056 0.033544157 0.0064990213 -0.02580297 0.027108923 0.013785129
0.0008689333 0.013555087 0.011160925 0.034372047 -0.0033514753 0.026088754 0.011617154 -0.0072233407
-0.024850398 0.035371196 0.022847483 -0.027610697 0.022236567 0.017595742 -0.02569151 0.017444279
0.019976975 0.023574308 0.021231106 0.008764789 0.030418621 0.003943785 -0.015210108 -0.021406002
0.017784735 -0.028999245 0.01839985 0.02694252 0.01007765 -0.00022334815 0.005297256 0.00501621
-0.0017687128 -0.01602543 0.004586157 0.021418447 -0.03672514 0.022636259 -0.02229532 -0.03249961
0.009513425 -0.022352507 0.0027138486 5.247793e-05 -0.0015011132 -0.019547572 -0.021388194 0.008043099
-0.02661081 -0.028792428 0.010964642 0.0063881073 0.011163238 -0.023520818 -0.021496179 0.032604713
0.010937419 -0.016588522 0.026727185 -0.032334786 0.014831628 -0.02066088 0.023727024 -0.026959838
0.025690222 0.010568743 -0.0028325988 0.02542269 0.00014703393 0.007049257 0.008318941 -0.0024132829
-0.023933662 0.0042172098 0.0072089448 -0.010070495 0.006904947 0.03550004 0.0071453014 0.0058124713
0.0016779625 -0.009567573 0.009705416 -0.010313742 0.0029481759 0.0054643964 -0.026758904 -0.0031176512
0.004541032 -0.023189325 -0.023832815 -0.018862914 0.012792577 -0.0028622472 -0.021360861 -0.02151984
0.028793346 -0.015703052 0.00861421 -0.026783662 0.009708662 -0.00980603 0.025931139 -0.029645214
-0.011064759 -0.037572388 0.021593442 -0.023587843 0.045158785 -0.00090676354 0.0030840873 0.014381803
-0.0385119 0.01398222 -0.014471496 0.0006997572 -0.02346513 0.015579813 -0.020242473 0.0064009666
0.030101804 0.02814778 0.023069778 0.02534316 0.0069397865 -0.0026995512 0.035992116 -0.00405629
0.002419803 0.033563394 0.018390873 0.029805982 0.00056413386 0.030471468 0.010880937 -0.00026487338
0.004874792 0.009564522 -0.014232308 -0.044708237 0.005000464 0.0038218228 -0.02748284 0.0044882833
0.015013093 0.03479714 -0.005368915 -0.007432323 0.026449334 -0.012227765 0.00069581537 0.0021444492
0.028011978 -0.018409992 -0.008817484 0.031260237 0.028848683 -0.010726289 0.0006515839 -0.019998541
-0.009808094 -0.0015610931 -0.0061429003 0.028212458 -0.010989799 0.021518582 -0.02656535 -0.017769681
0.038514555 -0.012866306 0.019006655 0.012191132 0.024031283 -0.034938395 -0.018704424 0.022470463
-0.05034218 -0.039502196 0.004993566 0.030050015 0.0073718354 -0.019308113 -0.032565247 0.04303458
0.013196447 -0.0030190633 0.023018027 -0.04171157 0.027319932 -0.009966064 0.019428728 -0.032327686
0.0091096945 -0.012553853 0.0033162443 0.034805432 0.0053023263 -0.001230309 -0.0020233062 -0.021119917
-0.007868367 -0.009173003 0.016894203 -0.002380725 -0.014899129 0.042794645 -0.0040053227 0.0052733757
-0.017549379 -0.014397863 0.007369446 -0.011202742 0.015191214 0.024726644 -0.030103179 0.0025634205
0.009427734 -0.014697623 -0.0013041722 -0.03510882 0.0066846036 -0.008054025 -0.027769282 -0.023919955
00000000: e541 ba3c 8c6d a3bc 1508 d43b b145 9dbc
00000010: b020 763c 0bc5 453c cb29 a23c 4e04 adbc
00000020: 9bde 68bc 5681 09bd 9c46 d53c 72f4 51bc
00000030: 7d1c c13c d07a 95bb 4ded febb 550d 5fbc
00000040: a212 88bc edee 3a3c dceb 5a3c ba18 91b9
00000050: 6672 583c c69a dd3b 7d2b 6cbc 62b7 d43a
00000060: b86e 9c3c 3fed 273c 0a55 1a3a 9965 093d
00000070: bef5 d43b c060 d3bc 8813 de3c 06db 613c
00000080: 20c9 633a 2816 5e3c 50dc 363c b4c9 0c3d
00000090: 6da4 5bbb 15b8 d53c e055 3e3c c6b1 ecbb
000000a0: 1093 cbbc 63e1 103d a52a bb3c d42f e2bc
000000b0: 7629 b63c f224 903c 0077 d2bc 4ee7 8e3c
000000c0: c1a6 a33c e81e c13c dbec ad3c 319a 0f3c
000000d0: 7930 f93c de3a 813b d133 79bc a45b afbc
000000e0: 4bb1 913c d38f edbc 48bb 963c 8fb6 dc3c
000000f0: ba1c 253c 9032 6ab9 9b94 ad3b 055f a43b
00000100: 27d4 e7ba c347 83bc 7947 963b bd75 af3c
00000110: 1a6d 16bd ad6f b93c ada4 b6bc 501e 05bd
00000120: 32de 1b3c 9b1c b7bc d3da 313b c01b 5c38
00000130: 00c1 c4ba 3b22 a0bc 4b36 afbc 34c7 033c
00000140: eafe d9bc 19de ebbc 0ba5 333c 5453 d13b
00000150: 04e6 363c bbae c0bc c118 b0bc 858c 053d
00000160: dc32 333c a7e4 87bc f8f2 da3c 7b71 04bd
00000170: 5b00 733c 0141 a9bc 2d5f c23c e1da dcbc
00000180: 4d74 d23c 8528 2d3c 1fa3 39bb 3f43 d03c
00000190: 1f2d 1a39 74fd e63b 2b4c 083c 2b28 1ebb
000001a0: 8710 c4bc 8530 8a3b 0339 ec3b b8fe 24bc
000001b0: e542 e23b 7d68 113d 2223 ea3b 8b76 be3b
000001c0: 14ef db3a 4fc1 1cbc 7703 1f3c f8fa 28bc
000001d0: 2f36 413b ae0e b33b 7d35 dbbc 8251 4cbb
000001e0: f0cc 943b 8af7 bdbc 093d c3bc 6686 9abc
000001f0: f597 513c 8a94 3bbb f9fc aebc 604a b0bc
00000200: 06e0 eb3c b0a3 80bc 9e22 0d3c 6969 dbbc
00000210: 1411 1f3c 79a9 20bc 8a6d d43c 85da f2bc
00000220: f748 35bc 81e5 19bd bbe4 b03c 4b3b c1bc
00000230: 6bf8 383d dfb3 6dba 661e 4a3b a7a1 6b3c
00000240: a7be 1dbd ae15 653c db19 6dbc e96f 373a
00000250: f239 c0bc 7942 7f3c 8bd3 a5bc 33bf d13b
00000260: 0f98 f63c 2c96 e63c d5fc bc3c 759c cf3c
00000270: 2667 e33b f4ea 30bb 786c 133d a0ea 84bb
00000280: 8f95 1e3b c579 093d 75a8 963c ad2b f43c
00000290: 62e2 133a 4d9f f93c f545 323c b4de 8ab9
000002a0: b8bc 9f3b 83b4 1c3c a02e 69bc fc1f 37bd
000002b0: efda a33b 8c77 7a3b b123 e1bc 7312 933b
000002c0: 7af9 753c 7287 0e3d b9ed afbb d88a f3bb
000002d0: 46ac d83c f756 48bc 6167 363a e389 0c3b
000002e0: 6079 e53c 8dd0 96bc 3577 10bc bc0a 003d
000002f0: 1354 ec3c 51bd 2fbc 0ecf 2a3a fbd3 a3bc
00000300: 21b2 20bc 989d ccba 624a c9bb d01d e73c
00000310: 8f0e 34bc bd47 b03c 949f d9bc b991 91bc
00000320: 70c1 1d3d 33cd 52bc d8b3 9b3c 50bd 473c
00000330: 41dd c43c 901b 0fbd 053a 99bc fa13 b83c
00000340: 9a33 4ebd 0ecd 21bd 11a1 a33b 732b f63c
00000350: 708f f13b 0c2c 9ebc 2363 05bd 0745 303d
00000360: e935 583c 7adb 45bb 4d90 bc3c c0d9 2abd
00000370: 0dce df3c b448 23bc ff28 9f3c 096a 04bd
00000380: d440 153c adae 4dbc 5955 593b 2490 0e3d
00000390: 23bf ad3b 5242 a1ba 7299 04bb ad03 adbc
000003a0: 53ea 00bc 5d4a 16bc b665 8a3c f005 1cbb
000003b0: 7a1b 74bc 7049 2f3d 153f 83bb 48cc ac3b
000003c0: b7c3 8fbc 04e5 6bbc 657b f13b b58b 37bc
000003d0: 92e4 783c 888f ca3c f19a f6bc 0fff 273b
000003e0: c876 1a3c 4dce 70bc c2f0 aaba 44ce 0fbd
000003f0: 850a db3b 07f5 03bc 687c e3bc c8f3 c3bc

lstm.bias_ih_l1 f4 [512]
0.10099145 0.036339283 0.040654473 0.05950332 0.07769255 0.08334994 0.052213218 0.046604186
0.11040171 0.094220296 0.04817876 0.03468559 0.06828927 0.053568747 0.030374268 0.056812737
0.055124603 0.05013833 0.03414248 0.06848642 0.049579132 0.04254785 0.06430771 0.026087565
0.054954357 0.050277095 0.053355455 0.045846358 0.039021686 0.03723024 0.079765655 0.075347185
0.06377625 0.08556523 0.05566461 0.07551036 0.04256499 0.08405848 0.06515432 0.05200432
0.05248758 0.061152942 0.051006265 0.07849081 0.055075374 0.04710519 0.054724228 0.07605052
0.06082153 0.06684581 0.075092934 0.046965007 0.057205882 0.06531108 0.075617075 0.04511958
0.04730384 0.09171723 0.08500087 0.053893022 0.05482472 0.06575549 0.051208373 0.061254308
0.04571795 0.03403949 0.04774566 0.05231967 0.08214107 0.0626988 0.06485284 0.08384801
0.07035602 0.09623035 0.043151073 0.08165966 0.077404544 0.033526894 0.06163013 0.07148214
0.054561168 0.04855901 0.046289902 0.059994783 0.0598162 0.04906758 0.05063005 0.06751763
0.03718341 0.056934502 0.057827044 0.07165719 0.05920586 0.06714325 0.06113622 0.06855761
0.057577398 0.040213045 0.07901065 0.08587674 0.05732311 0.050570298 0.030094044 0.05522551
0.0617473 0.030564772 0.06710078 0.07203782 0.06843406 0.043938294 0.024502268 0.06932412
0.10133849 0.088592194 0.08304452 0.07328017 0.06938877 0.067039706 0.052264597 0.06255494
0.038241778 0.052338324 0.04480706 0.05155138 0.035267614 0.07450482 0.048199803 0.076006144
0.09933798 0.05873679 0.04235449 0.070534796 0.051411577 0.069945045 0.062141825 0.04692247
0.07676039 0.07350932 0.060847297 0.010987365 0.1060422 0.03162079 0.0407908 0.02698709
0.034306843 0.0072569125 0.03067681 0.041320663 0.06891371 0.05317412 0.0333602 0.060133442
0.03874231 0.017044315 0.06317975 0.084662005 0.05469183 0.06738234 0.08130441 0.043528315
0.050320957 0.072853535 0.035910636 0.08708745 0.046996895 0.034688927 0.02310626 -0.00406904
0.0703544 0.035392236 0.04790813 0.069986925 0.04674871 0.030754628 0.05112134 0.05188834
0.057919543 0.09520271 0.031711664 0.045841075 0.06775531 0.06525656 0.053851932 0.060361102
0.042154945 0.10140046 0.09929046 0.04990039 0.038520437 0.046321396 0.03708956 0.09002732
0.04007735 0.04127545 0.03320797 0.01661007 0.06637478 0.08083451 0.066819154 0.106297575
0.044223413 0.10748636 0.06199439 0.061561458 0.067720085 0.049353622 0.09082923 0.05756148
0.079707466 0.038875483 0.010155765 0.07891451 0.0698089 0.07086795 0.06027214 0.070449516
0.03898057 0.06302309 0.07254582 0.067391075 0.019090194 0.06610585 0.031969592 0.102546625
0.063435234 0.04613529 0.09726897 0.021829782 0.057000864 0.06764591 0.07750582 0.044153433
0.05787475 0.056461036 0.05829091 0.05697676 0.052006163 0.07686224 0.059781127 0.053781606
0.11463744 0.04557217 0.064065054 0.022510909 0.07870277 0.109382965 0.04671967 0.077838525
0.040554624 0.034037482 0.061108604 0.05445409 0.049487717 0.05282219 0.07120782 0.08648873
00000000: 9bd4 ce3d 80d8 143d 4e85 263d c1b9 733d
00000010: 461d 9f3d 60b3 aa3d 87dd 553d 08e4 3e3d
00000020: 4b1a e23d 92f6 c03d 1757 453d 7a12 0e3d
00000030: 3fdb 8b3d e76a 5b3d 75d3 f83c 79b4 683d
00000040: 56ca 613d d95d 4d3d fcd8 0b3d 9c42 8c3d
00000050: 7d13 4b3d a846 2e3d c3b3 833d 97b5 d53c
00000060: d217 613d 5bef 4d3d 408b 5a3d 64c9 3b3d
00000070: 34d5 1f3d bc7e 183d 2d5c a33d a04f 9a3d
00000080: 1f9d 823d d33c af3d 9300 643d 2da5 9a3d
00000090: a158 2e3d da26 ac3d a16f 853d 7b02 553d
000000a0: 37fd 563d 827b 7a3d f2eb 503d cabf a03d
000000b0: b796 613d 5ff1 403d 8326 603d 60c0 9b3d
000000c0: ff1f 793d 75e6 883d 53ca 993d 615e 403d
000000d0: b750 6a3d d1c1 853d 20dd 9a3d 4fcf 383d
000000e0: acc1 413d 3ed6 bb3d f014 ae3d eebe 5c3d
000000f0: e38f 603d d0aa 863d dfbf 513d cce5 7a3d
00000100: bf42 3b3d fe6c 0b3d f490 433d 264d 563d
00000110: 9439 a83d 3a68 803d 91d1 843d 81b8 ab3d
00000120: d116 903d 6b14 c53d 2ebf 303d 2e3d a73d
00000130: 4686 9e3d 7f53 093d e06f 7c3d 3a65 923d
00000140: 887b 5f3d d0e5 463d 7b9a 3d3d 17bd 753d
00000150: d501 753d 16fb 483d 7561 4f3d af46 8a3d
00000160: a24d 183d 2734 693d 0ddc 6c3d 01c1 923d
00000170: d881 723d 6682 893d f969 7a3d ef67 8c3d
00000180: 47d6 6b3d 6fb6 243d 56d0 a13d 25e0 af3d
00000190: a3cb 6a3d cd22 4f3d c987 f63c 2534 623d
000001a0: bdea 7c3d f962 fa3c 226c 893d 9188 933d
000001b0: 2827 8c3d a4f8 333d fbb8 c83c cef9 8d3d
000001c0: 8e8a cf3d d36f b53d 3f13 aa3d ea13 963d
000001d0: b31b 8e3d 1d4c 893d 6713 563d ce1c 803d
000001e0: 69a3 1c3d b660 563d 9c87 373d 8a27 533d
000001f0: c674 103d fc95 983d 286d 453d 1ca9 9b3d
00000200: b671 cb3d fd95 703d e77b 2d3d 8c74 903d
00000210: f294 523d 593f 8f3d 6d88 7e3d c731 403d
00000220: 8d34 9d3d 0e8c 963d 043b 793d 5904 343c
00000230: a72c d93d cd84 013d 4114 273d 0814 dd3c
00000240: 5585 0c3d 65cb ed3b ef4d fb3c db3f 293d
00000250: a222 8d3d 1bcd 593d b4a4 083d 7c4e 763d
00000260: 42b0 1e3d 85a0 8b3c 6364 813d 4663 ad3d
00000270: 8a04 603d c1ff 893d ed82 a63d bf4a 323d
00000280: 591d 4e3d 3c34 953d 0817 133d e85a b23d
00000290: d17f 403d fa15 0e3d 5749 bd3c 9555 85bb
000002a0: f815 903d 73f7 103d 513b 443d 4e55 8f3d
000002b0: 937b 3f3d 21f1 fb3c 9c64 513d de88 543d
000002c0: 0b3d 6d3d a3f9 c23d 17e4 013d dac3 3b3d
000002d0: 4cc3 8a3d 3ba5 853d d893 5c3d 343d 773d
000002e0: aaaa 2c3d 0bab cf3d cc58 cb3d 5a64 4c3d
000002f0: 9bc7 1d3d 81bb 3d3d 39eb 173d 3e60 b83d
00000300: 2628 243d 7210 293d 1505 083d d711 883c
00000310: 80ef 873d 908c a53d 7bd8 883d 8bb2 d93d
00000320: 9c23 353d cf21 dc3d d4ed 7d3d de27 7c3d
00000330: d4b0 8a3d 0627 4a3d ad04 ba3d 96c5 6b3d
00000340: ab3d a33d e63b 1f3d 5e64 263c ee9d a13d
00000350: f8f7 8e3d 3723 913d ebdf 763d d647 903d
00000360: 17aa 1f3d 4012 813d e792 943d 5504 8a3d
00000370: 0a63 9c3c 8162 873d 8cf2 023d f703 d23d
00000380: 55ea 813d 5cf8 3c3d f434 c73d 5fd4 b23c
00000390: bd79 693d f089 8a3d 5fbb 9e3d 3bda 343d
000003a0: 130e 6d3d b043 673d 73c2 6e3d 7760 693d
000003b0: 6a04 553d f369 9d3d 0edd 743d 1a4a 5c3d
000003c0: 09c7 ea3d e2a9 3a3d 8a34 833d cc68 b83c
000003d0: eb2e a13d 2d04 e03d 205d 3f3d ce69 9f3d
000003e0: 9b1c 263d e36a 0b3d 044d 7a3d 400b 5f3d
000003f0: a2b3 4a3d 155c 583d 68d5 913d 0121 b13d
